src/deblur_models/best_model_mosaic20.pth (torch, 585909 bytes, 83 tensors)

initial_conv.0.weight f4 [32, 3, 3, 3]
-0.03434167 -0.14306742 -0.16700153 -0.26317835 -0.23817581 -0.2661401 -0.10370195 -0.028632566
-0.3017026 0.04594797 0.15837188 -0.06733197 -0.06530781 -0.10186185 0.1779819 0.15792629
0.1554751 -0.013970997 0.12498016 0.19711551 -0.052825097 0.114864714 0.28579092 0.2541279
0.2649479 0.3110955 0.10670474 -0.32383615 -0.2579179 -0.17767335 -0.27459237 0.2440554
-0.06285499 -0.08987978 -0.071230054 0.04576007 0.07507979 0.02877911 -0.07634228 0.23495752
0.09108396 0.33330983 0.058464143 0.3607388 0.35231188 -0.038772665 0.08196698 -0.16805622
-0.27702793 -0.13947542 0.12836587 -0.38541028 0.10057324 -0.08835942 -0.065736726 0.29269534
-0.08300844 -0.32078564 0.036686834 -0.3366793 -0.5462462 -0.31043592 -0.9042052 0.2624396
0.37147918 0.16697085 -0.05262617 -0.021871828 0.11494406 -0.0608915 -0.09142309 -0.042349678
-0.0121368775 0.14884003 -0.023650277 0.09918068 -0.00048600815 -0.19477539 0.038840182 0.08519821
-0.060092397 0.14913818 0.035143178 0.11188385 -0.041048206 0.15780123 -0.06748188 -0.08378748
-0.1859292 -0.34122753 0.27420232 0.08858489 -0.11749764 -0.047108434 0.015721375 -0.42541292
-0.04259336 -0.20186281 -0.8782609 0.14756568 0.27179277 -0.163285 -0.16600569 -0.0004985996
-0.33137217 -0.19293718 0.043653537 -0.29500878 0.10813549 0.21368511 0.027100455 0.03206887
-0.06574185 0.07974165 -0.04338687 0.1485103 0.050582208 -0.111966796 0.07444091 -0.023530234
-0.21647353 -0.10930097 0.054201834 -0.3090569 -0.22625549 -0.28048033 0.5189354 0.6001718
0.95630085 0.2297512 0.23643434 0.32317153 0.25954014 -0.0014384825 -0.00391191 -0.65214866
-0.06772137 -0.14722535 -0.28202102 0.096114315 0.2440373 -0.42735577 0.13955607 0.18216264
-0.080106996 -0.0015376618 -0.17509305 0.0910174 0.07924534 0.10344243 -0.08246563 0.1271063
0.14269459 0.19450855 0.0890301 -0.20595098 0.09516515 0.26264694 -0.1535411 -0.034651306
0.016936712 -0.17078528 0.13965103 -0.05825372 0.37725118 -0.030643139 0.05109278 0.06719356
0.074512176 0.063859925 0.27618387 0.042451486 -0.040739194 0.39491454 -0.03314596 -0.16120401
0.2211835 -0.033896033 0.20884107 0.48949555 0.072478205 -0.15274024 0.17319599 -0.0413334
-0.05756735 0.21024321 0.16151614 0.15079114 0.26312163 0.3574051 0.44220307 -0.016005054
0.21614505 0.1859721 -0.28176218 0.021012317 -0.052996725 -0.42234 0.2746497 0.15652421
0.054026943 0.108321264 -0.085409895 -0.10665158 0.00464995 -0.09944278 -0.34651282 -0.154641
0.23740728 -0.08367233 -0.054380417 0.20117968 -0.19354317 -0.08076151 0.07700916 0.10368355
0.29593015 0.31279603 0.22865506 -0.12996115 0.024301365 -0.08133167 -0.14628363 -0.2373303
-0.3422 0.115585744 0.13008326 0.15301153 0.1801759 0.0018269898 0.20282058 -0.2366205
-0.38401723 -0.24719833 -0.1418012 0.23655716 0.102878414 0.17847951 0.046071477 0.052968685
-0.13743898 -0.1810034 -0.123101965 0.23205218 0.32515693 0.2724887 -0.06533777 0.036072467
0.25765157 0.16986898 0.3115758 0.20678279 0.055408057 -0.005488687 0.021025682 -0.04932981
00000000: daa9 0cbd 4480 12be 7302 2bbe 50bf 86be
00000010: 5ce4 73be 8443 88be b061 d4bd d88e eabc
00000020: c378 9abe f033 3c3d 3d2c 223e 58e5 89bd
00000030: 1ac0 85bd f29c d0bd e340 363e 6eb7 213e
00000040: dd34 1f3e 9ce6 64bc 99f5 ff3d a6d8 493e
00000050: 215f 58bd 313e eb3d 3053 923e 0d1d 823e
00000060: 40a7 873e e947 9f3e 0488 da3d dacd a5be
00000070: d10d 84be 01f0 35be 5f97 8cbe a9e9 793e
00000080: 1eba 80bd e412 b8bd 10e1 91bd e96e 3b3d
00000090: 6fc3 993d 2bc2 eb3c 5759 9cbd b498 703e
000000a0: 3a8a ba3d 96a7 aa3e 1978 6f3d c2b2 b83e
000000b0: 3962 b43e 16d0 1ebd 4ede a73d ee16 2cbe
000000c0: 9bd6 8dbe a5d2 0ebe 5872 033e 7f54 c5be
000000d0: 58f9 cd3d c9f5 b4bd faa0 86bd 2adc 953e
000000e0: 5400 aabd 043e a4be ef44 163d 3b61 acbe
000000f0: cad6 0bbf 75f1 9ebe fe79 67bf 7c5e 863e
00000100: 8532 be3e 68fa 2a3e 8a8e 57bd 8c2c b3bc
00000110: cb67 eb3d 5e69 79bd 073c bbbd db76 2dbd
00000120: c1d9 46bc 8569 183e 3abe c1bc 3e1f cb3d
00000130: e9ce feb9 3373 47be e216 1f3d 667c ae3d
00000140: 7223 76bd aeb7 183e 4bf2 0f3d 5c23 e53d
00000150: 2a22 28bd a596 213e f133 8abd c598 abbd
00000160: 3964 3ebe 60b5 aebe 3f64 8c3e ff6b b53d
00000170: 9aa2 f0bd c6f4 40bd 1dca 803c b9cf d9be
00000180: 6076 2ebd 20b5 4ebe b5d5 60bf 751b 173e
00000190: 6c28 8b3e 2f34 27be 65fd 29be 74b4 02ba
000001a0: 9da9 a9be 5391 45be 0dce 323d 640b 97be
000001b0: 2476 dd3d 45d0 5a3e c601 de3c a65a 033d
000001c0: aaa3 86bd 974f a33d 6eb6 31bd 1613 183e
000001d0: 4a2f 4f3d d94e e5bd 7a74 983d 7ac2 c0bc
000001e0: 3dab 5dbe 30d9 dfbd be02 5e3d b53c 9ebe
000001f0: 85af 67be 1e9b 8fbe f3d8 043f dca4 193f
00000200: 22d0 743f e643 6b3e d81b 723e bd76 a53e
00000210: 72e2 843e 778b bcba 7b2f 80bb 37f3 26bf
00000220: 80b1 8abd 3ec2 16be 0f65 90be 95d7 c43d
00000230: eae4 793e 60ce dabe c9e7 0e3e d888 3a3e
00000240: 230f a4bd 5e8b c9ba 984b 33be 5567 ba3d
00000250: 614b a23d a0d9 d33d bde3 a8bd 2728 023e
00000260: 881e 123e 402d 473e 6a55 b63d d0e4 52be
00000270: f2e5 c23d a979 863e e139 1dbe 87ee 0dbd
00000280: dcbe 8a3c 56e2 2ebe ae00 0f3e 749b 6ebd
00000290: 1127 c13e 5207 fbbc aa46 513d c79c 893d
000002a0: d799 983d fec8 823d f967 8d3e 9ce1 2d3d
000002b0: 24de 26bd 3d32 ca3e 0fc4 07bd aa12 25be
000002c0: ed7d 623e 91d6 0abd 6fda 553e 299f fa3e
000002d0: 746f 943d f067 1cbe 4a5a 313e 364d 29bd
000002e0: becb 6bbd ff49 573e 7d64 253e fe68 1a3e
000002f0: e1b7 863e cdfd b63e 7168 e23e 081d 83bc
00000300: 2155 5d3e 786f 3e3e 2243 90be 0622 ac3c
00000310: 1813 59bd f33c d8be e39e 8c3e e247 203e
00000320: 5b4b 5d3d 8ad7 dd3d 62eb aebd 256c dabd
00000330: 9c5e 983b a8a8 cbbd 216a b1be 365a 1ebe
00000340: e51a 733e 665c abbd 00be 5ebd 0c02 4e3e
00000350: 2e30 46be 4a66 a5bd fab6 9d3d 0b58 d43d
00000360: 2884 973e cd26 a03e 8d24 6a3e 8914 05be
00000370: a813 c73c 3891 a6bd 60cb 15be b706 73be
00000380: d734 afbe 38b8 ec3d 8c34 053e 0eaf 1c3e
00000390: 0880 383e 9b77 ef3a 33b0 4f3e a54c 72be
000003a0: e89d c4be 8f21 7dbe 5534 11be 0a3c 723e
000003b0: ebb1 d23d 55c3 363e 72b5 3c3d b1f5 583d
000003c0: cebc 0cbe f558 39be e21c fcbd 169f 6d3e
000003d0: f87a a63e a483 8b3e cfcf 85bd b9c0 133d
000003e0: e8ea 833e 22f2 2d3e dd86 9f3e debe 533e
000003f0: 8ff3 623d 72da b3bb 0d3e ac3c 0e0e 4abd

initial_conv.1.weight f4 [32]
1.2852339 0.8886531 1.0221602 1.0612385 1.0560383 1.056118 1.1032794 0.8926563
0.9885101 0.9847888 1.090128 1.2874287 1.0598091 1.2517172 0.8590764 1.1257107
0.99717796 1.1091497 1.0206559 1.11365 0.79698634 1.0383947 1.1207343 0.956793
0.93270063 1.1515676 1.1468781 1.0503688 1.0937713 1.0901145 0.8793089 1.0487313
00000000: 8b82 a43f c57e 633f 25d6 823f aad6 873f
00000010: 432c 873f e02e 873f 4238 8d3f 2085 643f
00000020: ff0e 7d3f 1e1b 7c3f 5089 8b3f 77ca a43f
00000030: d3a7 873f 4538 a03f 6eec 5b3f 4a17 903f
00000040: 0e47 7f3f 9ef8 8d3f daa4 823f 158c 8e3f
00000050: 4c07 4c3f 1eea 843f 3974 8f3f 63f0 743f
00000060: 78c5 6e3f 9166 933f e7cc 923f 7c72 863f
00000070: b300 8c3f df88 8b3f 631a 613f d43c 863f

initial_conv.1.bias f4 [32]
0.17961924 0.12501754 -0.042603582 -0.01983727 0.146589 -0.067144044 0.042407822 0.4079316
0.46862355 0.45083472 0.048195202 0.1712906 -0.16648152 -0.08906878 0.16154543 -0.13758843
-0.16746736 -0.00801694 -0.04929021 0.10182182 0.58589804 0.015950773 0.36589637 -0.10465308
-0.16250701 0.098421246 0.36200842 -0.039461415 0.13454244 0.31129408 0.64734703 0.09504303
00000000: 1bee 373e 9904 003e 1881 2ebd c581 a2bc
00000010: 6d1b 163e d182 89bd d3b3 2d3d 69dc d03e
00000020: 6def ef3e cfd3 e63e 5568 453d ce66 2f3e
00000030: 227a 2abe b169 b6bd 2a6c 253e fbe3 0cbe
00000040: 907c 2bbe 7c59 03bc 88e4 49bd f587 d03d
00000050: 6afd 153f 32ab 823c c556 bb3e 5b54 d6bd
00000060: 3d68 26be 1491 c93d 2b59 b93e 4ba2 21bd
00000070: 7ec5 093e f061 9f3e 89b8 253f eca5 c23d

initial_conv.1.running_mean f4 [32]
-0.07564816 -0.17792366 -0.8430621 -0.87030977 0.85085064 -0.34557238 1.1528585 0.2274338
-0.05961915 0.38731685 0.9586584 -0.15795761 -0.9979573 -0.5620488 0.06962687 -0.69231594
-0.40439326 0.7541631 -1.0862169 -0.723066 0.07959686 1.1396725 0.5143131 -0.38697767
1.1813184 0.4486979 0.51702654 1.8477601 -1.073554 -0.030411901 0.02468178 -1.0470159
00000000: 6ced 9abd 9f31 36be ebd2 57bf 9fcc 5ebf
00000010: 59d1 593f ddee b0be de90 933f 68e4 683e
00000020: 3633 74bd 654e c63e a36a 753f a4bf 21be
00000030: 217a 7fbf 6ee2 0fbf 8898 8e3d 9e3b 31bf
00000040: a20c cfbe d510 413f 2809 8bbf da1a 39bf
00000050: ae03 a33d cae0 913f 06aa 033f f021 c6be
00000060: 7135 973f bbbb e53e da5b 043f 6783 ec3f
00000070: 386a 89bf 6122 f9bc 7231 ca3c 9e04 86bf

initial_conv.1.running_var f4 [32]
0.047875613 0.013901188 0.20007406 0.25682646 0.28909457 0.03549565 0.4043919 0.021160455
0.009496806 0.061239883 0.26571214 0.068736374 0.43146652 0.10768629 0.010527585 0.14981101
0.051614325 0.16228145 0.35888064 0.16287798 0.009206196 0.3508811 0.09809003 0.0630584
0.41322067 0.06835291 0.07829955 1.0770364 0.31454095 0.04480144 0.009522471 0.33347136
00000000: 3819 443d cfc1 633c 37e0 4c3e c27e 833e
00000010: 3404 943e e363 113d 750c cf3e b158 ad3c
00000020: 7e98 1b3c acd6 7a3d 6c0b 883e a8c5 8c3d
00000030: 2ee9 dc3e a18a dc3d e47b 2c3c 0f68 193e
00000040: 8b69 533d 1c2d 263e 34bf b73e 7cc9 263e
00000050: 96d5 163c b0a6 b33e 6de3 c83d c324 813d
00000060: a991 d33e 9cfc 8b3d 845b a03d 54dc 893f
00000070: 830b a13e b781 373d 2304 1c3c c2bc aa3e

enc1.conv1.depthwise.weight f4 [32, 1, 3, 3]
0.35577017 0.074164994 0.39409924 -0.31015122 0.12902753 0.020862855 0.14318357 -0.31666642
-0.2625187 0.20978115 -0.17151174 -0.17589836 -0.29877043 0.017055215 -0.15956882 0.34437504
-0.29253992 0.2178898 -0.19629829 0.19637534 0.199698 -0.22074836 -0.22284077 -0.11382705
-0.33663538 -0.030581431 -0.36295605 0.06671422 -0.08155817 0.36554208 -0.013556724 -0.17314474
0.39266574 -0.31825617 -0.4142477 0.37032396 0.10123469 0.19233386 0.40339723 -0.22576448
-0.107393965 -0.3211741 0.34442365 -0.06974728 -0.31960735 0.2109994 -0.20462403 0.29023698
0.032289546 0.19991449 0.3253881 0.11888734 -0.24298732 0.05591345 0.20830348 0.45181546
-0.3348419 0.2337069 0.38708296 -0.26174122 -0.34179863 -0.21047194 -0.18294019 0.15504104
0.017579008 0.5202906 0.00095845084 0.18272343 0.08442648 0.23328574 -0.083825625 0.07473466
-0.19565043 -0.23836076 -0.13663243 -0.16184513 0.11507681 0.1631507 0.057815395 -0.4748171
-0.40529662 -0.15364754 -0.34592494 0.16359527 -0.020886619 -0.13879012 -0.29050544 -0.015433872
-0.004784138 0.22296754 -0.3926217 0.11951003 -0.17239463 -0.2136044 -0.124233924 -0.2845919
0.09117134 0.018560017 0.0118294805 -0.29846206 -0.2924724 0.16318618 -0.12730123 0.31620792
0.3711686 -0.101546966 0.1832154 0.13846906 0.44866708 0.14957654 0.34804296 -0.32752106
-0.19487453 -0.3164242 0.22795258 -0.113857865 -0.16062374 0.49168476 -0.13319264 0.28800014
-0.31732535 -0.48719662 0.048683237 -0.110206015 -0.2551328 0.16101047 0.1347352 -0.39498088
0.08540223 -0.2778759 0.1300304 0.113899335 -0.021929372 -0.4018235 -0.4308041 -0.043924354
-0.17175427 -0.16528085 0.0010042385 -0.17052725 -0.21842842 -0.009931611 0.07337615 0.3547881
-0.27693686 -0.30985242 -0.42357284 0.046680357 0.21124916 0.16027865 0.0654945 0.25357336
-0.23987639 -0.103559 -0.34181964 -0.26607493 0.1671878 0.30304104 -0.3126253 0.3000176
-0.08557183 0.31364077 -0.4350281 0.33444774 0.01712066 -0.32072672 0.38224337 -0.02159915
-0.08968965 0.05632022 0.033965383 -0.28306475 0.17763326 0.3992706 0.12487511 0.056033384
0.028180858 0.38405037 0.055338282 0.014281962 0.22257963 0.026215017 -0.16675319 -0.20715617
-0.18913946 -0.33438993 0.43993798 0.41046295 -0.12254117 -0.18446735 0.1320571 -0.1634431
-0.07412299 -0.10452105 -0.26665065 -0.18684617 -0.26038173 -0.1714696 -0.029316956 -0.21232677
0.23943616 -0.082959086 -0.29587826 0.29975113 -0.3231818 -0.054402616 0.37683818 0.040972188
0.19815212 0.40389442 -0.47318208 -0.11552697 -0.25288147 -0.2337066 0.09517789 -0.10206523
0.2712251 0.26593605 -0.2128336 -0.09441351 -0.12215617 -0.23714739 -0.16838118 0.07679862
-0.03108908 0.28930593 -0.24223733 -0.30385065 0.31068724 0.35892034 -0.1351089 -0.1788691
0.119043164 -0.4617899 0.218887 -0.07809607 -0.11113928 0.38868585 0.05911295 0.0644946
0.093384005 -0.55219173 -0.18997139 -0.067096315 0.24436854 0.06785746 0.22790024 -0.39630064
0.1657964 -0.003837778 -0.43303794 -0.32013255 0.14237282 0.2851556 -0.35477284 0.02412991
00000000: 8227 b63e d1e3 973d 60c7 c93e 24cc 9ebe
00000010: cb1f 043e 94e8 aa3c b79e 123e 1a22 a2be
00000020: da68 86be dfd0 563e c6a0 2fbe b31e 34be
00000030: 70f8 98be 61b7 8b3c 0266 23be ed51 b03e
00000040: cbc7 95be 811e 5f3e 6b02 49be 9e16 493e
00000050: a27d 4c3e dc0b 62be 5f30 64be 281e e9bd
00000060: 795b acbe e985 fabc 60d5 b9be 77a1 883d
00000070: f807 a7bd 5528 bb3e 061d 5ebc db4c 31be
00000080: 7c0b c93e 79f2 a2be 4618 d4be 1a9b bd3e
00000090: 2254 cf3d 2bf3 443e 158a ce3e ce2e 67be
000000a0: 5ef1 dbbd ee70 a4be 4c58 b03e a9d7 8ebd
000000b0: 93a3 a3be 3a10 583e f688 51be f199 943e
000000c0: 0b42 043d 62b6 4c3e 4599 a63e 357b f33d
000000d0: abd1 78be 8005 653d 824d 553e 5b54 e73e
000000e0: 6670 abbe dd50 6f3e bd2f c63e f202 86be
000000f0: 3b00 afbe f585 57be ac54 3bbe 14c3 1e3e
00000100: da01 903c c431 053f 8c40 7b3a da1b 3b3e
00000110: cae7 ac3d 75e2 6e3e c5ac abbd 7c0e 993d
00000120: 9658 48be d814 74be 5fe9 0bbe bbba 25be
00000130: 64ad eb3d fa10 273e d6cf 6c3d 3a1b f3be
00000140: 0a83 cfbe c855 1dbe 131d b1be 8585 273e
00000150: 6a1a abbc ff1e 0ebe 21bd 94be 5ade 7cbc
00000160: 42c4 9cbb 9a51 643e b605 c9be adc1 f43d
00000170: 3888 30be 1dbb 5abe 5b6e febd 08b6 91be
00000180: 0ab8 ba3d 2d0b 983c 70d0 413c 05d0 98be
00000190: f1be 95be 471a 273e 415b 02be 01e6 a13e
000001a0: d009 be3e dbf7 cfbd d19c 3b3e d5ca 0d3e
000001b0: b1b7 e53e 982a 193e b032 b23e d7b0 a7be
000001c0: 308d 47be 5a02 a2be 676c 693e 502e e9bd
000001d0: 8d7a 24be 1bbe fb3e a763 08be c174 933e
000001e0: 7878 a2be d671 f9be 1368 473d b1b3 e1bd
000001f0: c4a0 82be eedf 243e 06f8 093e ef3a cabe
00000200: 5de7 ae3d c045 8ebe b026 053e 0e44 e93d
00000210: 3aa5 b3bc cfbb cdbe 5b92 dcbe 06ea 33bd
00000220: 5ae0 2fbe 623f 29be a7a0 833a b29e 2ebe
00000230: b3ab 5fbe 32b8 22bc 3c46 963d c9a6 b53e
00000240: abca 8dbe faa4 9ebe 8ade d8be e733 3f3d
00000250: b351 583e 1620 243e fb21 863d 5ed4 813e
00000260: 28a2 75be be16 d4bd fc02 afbe f93a 88be
00000270: 4733 2b3e 3228 9b3e 6c10 a0be e89b 993e
00000280: 4940 afbd 8695 a03e 01bc debe bc3c ab3e
00000290: a040 8c3c 4b36 a4be 67b5 c33e b3f0 b0bc
000002a0: 35af b7bd 08b0 663d 491f 0b3d dded 90be
000002b0: 7ee5 353e 326d cc3e 86be ff3d 4383 653d
000002c0: 8bdb e63c 40a2 c43e 65aa 623d e4fe 693c
000002d0: eaeb 633e e0c0 d63c 59c1 2abe bf20 54be
000002e0: c6ad 41be 2835 abbe 8d3f e13e 3328 d23e
000002f0: ddf6 fabd 02e5 3cbe fa39 073e a15d 27be
00000300: cbcd 97bd 220f d6bd 6f86 88be 9a54 3fbe
00000310: c150 85be ba95 2fbe 1d2a f0bc 306c 59be
00000320: c12e 753e 74e6 a9bd 5b7d 97be fb78 993e
00000330: 1678 a5be 47d5 5ebd eff0 c03e 74d2 273d
00000340: 64e8 4a3e 40cb ce3e ec44 f2be 6799 ecbd
00000350: ae79 81be c850 6fbe a0ec c23d 9307 d1bd
00000360: 04de 8a3e c528 883e 0df1 59be df5b c1bd
00000370: 042d fabd c4d6 72be 1e6c 2cbe 9848 9d3d
00000380: 87ae febc e81f 943e 100d 78be 5092 9bbe
00000390: 6612 9f3e 68c4 b73e fd59 0abe 7629 37be
000003a0: e7cc f33d ba6f ecbe ea23 603e d5f0 9fbd
000003b0: fe9c e3bd d501 c73e 6c20 723d bf15 843d
000003c0: 1d40 bf3d 705c 0dbf dc87 42be cb69 89bd
000003d0: bf3b 7a3e daf8 8a3d ae5e 693e ebe7 cabe
000003e0: 88c6 293e 3b83 7bbb 26b7 ddbe 6ae8 a3be
000003f0: 2eca 113e eaff 913e c9a4 b5be 17ac c53c

enc1.conv1.pointwise.weight f4 [32, 32, 1, 1]
0.018556308 -0.0697995 0.11564725 -0.326121 0.33124152 -0.009216577 0.3506635 0.028590713
-0.20699012 -0.07320407 -0.14617212 0.14607349 -0.24537198 -0.07314263 -0.17775503 0.17969602
0.44914266 0.45741633 -0.39590648 0.24707563 -0.13578486 -0.08928511 0.22500272 -0.1462177
0.056657244 -0.23918082 0.28780094 -0.026514007 -0.16054836 -0.14725988 0.4251719 0.08790424
-0.12888238 0.029646857 0.09838042 0.20755734 -0.051180284 0.30536133 0.35784447 -0.03284313
-0.20836388 -0.16949907 0.18138622 -0.10537777 0.1694315 -0.33244666 0.21878007 0.19159497
0.230919 0.13691817 -0.08547448 -0.17756698 -0.17715827 0.0054534273 0.38700348 -0.19559026
-0.21458422 -0.15186095 -0.0011850664 -0.41520283 0.03210966 0.08238705 -0.22591296 -0.19287106
0.074840076 0.012450375 -0.3264681 0.3342782 -0.10731898 0.18120915 0.18408114 -0.064423576
-0.01748358 0.04495021 0.017530913 0.20849529 -0.13143644 0.21494615 0.08229641 0.059188474
0.22422315 0.02647175 -0.15770611 -0.1625614 0.18042237 0.17012142 -0.1826177 0.26632506
0.063755885 0.011617877 -0.4347196 0.032818552 -0.031970676 -0.44428423 -0.07105825 0.20082547
0.101957805 0.09601178 -0.0024781646 0.2966856 -0.0826127 0.21067514 0.41446593 0.39091882
0.18676434 -0.044487644 -0.2576001 -0.24149868 -0.229226 0.045880567 0.46443704 -0.13089204
-0.08635529 -0.2595498 -0.04311567 0.11907877 -0.029437969 -0.1603525 -0.24064042 0.1858148
-0.062410872 -0.16645631 0.2695174 0.14407884 -0.027208453 0.1421861 0.027174044 -0.016345961
-0.2176154 -0.3663651 0.17868368 -0.14344315 -0.0065852404 -0.035099167 -0.040103454 0.11065801
0.04878999 -0.014992923 -0.41845277 -0.16492139 -0.057789378 0.14381108 -0.08761132 -0.0699045
0.258076 -0.2875029 0.050366726 0.06513437 -0.41639185 -0.25657845 0.17340994 0.11319283
-0.02450875 -0.1238756 0.07598418 -0.19699581 0.07131984 0.24344397 -0.009012487 -0.033877257
0.028034307 0.121727206 0.15991412 -0.24331814 0.06946135 0.013098492 -0.47194898 -0.42344153
0.032535613 -0.18922083 -0.122426696 0.03148093 0.041937504 0.121945605 0.15137555 0.047298
0.18983705 -0.23100364 -0.28534505 -0.1801857 -0.31559148 -0.12892407 0.08241019 0.30715072
0.080070324 -0.14022633 -0.3128383 -0.12794952 0.07518693 0.09430806 -0.07811992 -0.17674382
0.15497771 -0.11906149 0.07552456 -0.12477658 0.15166761 0.1780761 -0.18114623 0.113647915
0.50879693 0.04608943 0.15791567 -0.00066147145 0.11860526 -0.067529246 0.1092989 -0.14478883
-0.4238259 0.19673185 0.027876941 0.2976167 0.03890595 0.002129037 0.017722433 0.22461581
0.21495245 0.10152168 0.09540781 0.038863223 -0.011236688 -0.034950797 0.07920559 -0.5299414
0.112983994 -0.1567648 0.22545888 -0.2176749 -0.25367308 0.3024319 -0.049874365 0.14134893
0.30289814 -0.081186764 0.25296184 -0.29803205 0.34290728 0.06595958 0.073430665 -0.15804641
-0.17241275 -0.57304496 -0.4045334 -0.016852526 0.3180632 0.06189873 0.09480307 -0.14991894
0.02124763 -0.17136285 -0.18277225 0.0050058314 -0.067963816 -0.007794302 0.24286929 -0.30294323
00000000: 6603 983c 0af3 8ebd 77d8 ec3d 55f9 a6be
00000010: 7d98 a93e 2001 17bc 2b8a b33e 1237 ea3c
00000020: 38f5 53be 04ec 95bd 25ae 15be 4a94 153e
00000030: cb42 7bbe cecb 95bd 6a05 36be 3c02 383e
00000040: 07f6 e53e 7932 ea3e 41b4 cabe 6501 7d3e
00000050: 300b 0bbe 1ddb b6bd 1d67 663e 18ba 15be
00000060: 6d11 683d d1eb 74be a55a 933e e733 d9bc
00000070: ca66 24be 4bcb 16be 22b0 d93e 2307 b43d
00000080: bef9 03be f7dd f23c ac7b c93d e989 543e
00000090: 6ba2 51bd 5258 9c3e 6437 b73e 8586 06bd
000000a0: 575d 55be 2a91 2dbe 4fbd 393e 4dd0 d7bd
000000b0: 737f 2d3e 7336 aabe e207 603e 7931 443e
000000c0: 0876 6c3e 4734 0c3e 3f0d afbd 1ed4 35be
000000d0: fa68 35be aab2 b23b 5225 c63e d048 48be
000000e0: f7bb 5bbe 7081 1bbe 3b54 9bba 7795 d4be
000000f0: 6b85 033d 8bba a83d ba55 67be fe7f 45be
00000100: c145 993d a8fc 4b3c d426 a7be 8326 ab3e
00000110: 0eca dbbd e48e 393e c47f 3c3e 82f0 83bd
00000120: ba39 8fbc b61d 383d fd9c 8f3c ca7f 553e
00000130: 4697 06be d81a 5c3e 058b a83d 9d6f 723d
00000140: c19a 653e 49db d83c b67d 21be 7f76 26be
00000150: a4c0 383e 4f34 2e3e 2200 3bbe c25b 883e
00000160: 7292 823d e858 3e3c 9193 debe bf6c 063d
00000170: aff3 02bd 3979 e3be fd86 91bd 31a5 4d3e
00000180: 41cf d03d d3a1 c43d b468 22bb 2de7 973e
00000190: d930 a9bd 39bb 573e e134 d43e 8326 c83e
000001a0: 273f 3f3e ad38 36bd 29e4 83be 6e4b 77be
000001b0: 38ba 6abe 43ed 3b3d b1ca ed3e 9008 06be
000001c0: 0bdb b0bd b6e3 84be 0f9a 30bd 92df f33d
000001d0: e527 f1bc 7233 24be 716a 76be 3c46 3e3e
000001e0: 8ba2 7fbd 8673 2abe 2ffe 893e 6789 133e
000001f0: 43e4 debc 3c99 113e 1a9c de3c f7e7 85bc
00000200: 92d6 5ebe 3594 bbbe dbf8 363e c3e2 12be
00000210: 00c9 d7bb 25c4 0fbd 8543 24bd aba0 e23d
00000220: 03d8 473d e0a4 75bc 713f d6be 27e1 28be
00000230: 8eb4 6cbd 3643 133e 906d b3bd 172a 8fbd
00000240: 8a22 843e 9533 93be 574d 4e3d 2b65 853d
00000250: 5031 d5be 405e 83be 6092 313e a4d1 e73d
00000260: 93c6 c8bc 7eb2 fdbd 989d 9b3d 45b9 49be
00000270: 2310 923d 6049 793e 1ca9 13bc e1c2 0abd
00000280: 34a8 e53c 1d4c f93d 87c0 233e 6428 79be
00000290: c141 8e3d 0f9b 563c 4ca3 f1be 54cd d8be
000002a0: 1044 053d 1bc3 41be d9ba fabd 26f2 003d
000002b0: a9c6 2b3d 9ebe f93d 3102 1b3e 8cbb 413d
000002c0: a564 423e 388c 6cbe bf18 92be 9a82 38be
000002d0: 3595 a1be ac04 04be acc6 a83d dc42 9d3e
000002e0: e9fb a33d 7e97 0fbe 572c a0be 3305 03be
000002f0: 9bfb 993d 9624 c13d 56fd 9fbd 55fc 34be
00000300: 7ab2 1e3e 83d6 f3bd 9fac 9a3d dd8a ffbd
00000310: c14e 1b3e 9559 363e 667e 39be 3dc0 e83d
00000320: 8440 023f 45c8 3c3d a5b4 213e 9966 2dba
00000330: 51e7 f23d c64c 8abd 1ad8 df3d 8643 14be
00000340: b5ff d8be 1374 493e 2f5e e43c 3761 983e
00000350: d85b 1f3d 5087 0b3b a32e 913c b001 663e
00000360: 7f1c 5c3e 99ea cf3d 2b65 c33d 0b2f 1f3d
00000370: 161a 38bc 9128 0fbd 8a36 a23d 3daa 07bf
00000380: 2764 e73d f486 20be b1de 663e 2be6 5ebe
00000390: 70e1 81be 5bd8 9a3e 1049 4cbd c6bd 103e
000003a0: 7715 9b3e 3f45 a6bd 3784 813e a897 98be
000003b0: 8b91 af3e d115 873d d162 963d ebd6 21be
000003c0: f88c 30be 13b3 12bf 001f cfbe 4f0e 8abc
000003d0: 2ed9 a23e 8689 7d3d 1d28 c23d 5a84 19be
000003e0: 820f ae3c be79 2fbe a628 3bbe f507 a43b
000003f0: 9d30 8bbd 5867 ffbb bab2 783e 601b 9bbe

enc1.conv1.bn.weight f4 [32]
0.9627139 0.9941246 0.89461833 0.96308285 1.0071982 0.9816754 1.1001445 0.9586641
1.0624229 0.93748015 0.9426893 1.0514174 0.97199297 1.0145909 1.1118121 0.62364805
0.8755234 0.88867766 1.2369843 1.0037622 1.0420284 0.8428069 0.99262065 1.0895851
1.0396247 0.82153153 0.9601349 0.95346344 0.8454502 1.0464394 0.9893171 0.8968157
00000000: 6b74 763f f37e 7e3f b505 653f 998c 763f
00000010: dfeb 803f 144f 7b3f 89d1 8c3f 036b 753f
00000020: 79fd 873f b3fe 6f3f 1654 713f d894 863f
00000030: 88d4 783f 1dde 813f dc4f 8e3f 66a7 1f3f
00000040: 4d22 603f 6180 633f 8055 9e3f 487b 803f
00000050: 3061 853f 31c2 573f 631c 7e3f 8677 8b3f
00000060: 6c12 853f e44f 523f 67cb 753f 2e16 743f
00000070: 6d6f 583f baf1 853f e343 7d3f b795 653f

enc1.conv1.bn.bias f4 [32]
0.36851537 -0.28902325 0.2537279 -0.3727414 -0.041367803 0.06969511 -0.30583847 0.5127086
-0.1784369 0.29181206 0.1820661 0.60980564 0.16733989 -0.111608975 -0.08555383 0.5993852
-0.13857123 -0.19165541 -0.07116023 0.6685517 0.47052702 0.1995886 0.15533821 0.086951144
0.2106138 0.1727766 0.22769454 0.4605543 0.90453047 -0.0440339 0.21409884 -0.04775346
00000000: 0cae bc3e dbfa 93be a0e8 813e f6d7 bebe
00000010: 4971 29bd 4fbc 8e3d dc96 9cbe df40 033f
00000020: 2ab8 36be 6468 953e 896f 3a3e 391c 1c3f
00000030: 265b 2b3e 3f93 e4bd d936 afbd 4f71 193f
00000040: 9ee5 0dbe 5141 44be 74bc 91bd 3426 2b3f
00000050: ebe8 f03e f460 4c3e fb10 1f3e 7113 b23d
00000060: 25ab 573e 59ec 303e c228 693e c6cd eb3e
00000070: 4f8f 673f e45c 34bd ba3c 5b3e 2299 43bd

enc1.conv1.bn.running_mean f4 [32]
0.10821322 0.20995371 -0.01717065 0.28761563 0.2874232 -0.34058523 -0.22541338 -0.33359763
0.73718405 -0.028113205 -0.93942636 0.37903827 0.12797272 0.10316337 0.048276193 -0.2475365
-0.5460122 0.35624096 0.7446754 0.09479149 0.37842673 -0.13079299 0.3294711 -0.14937086
-0.10197034 0.090045005 0.11488172 0.11210438 0.009606958 -0.4560273 -1.140845 -0.0004895396
00000000: e59e dd3d 1bfe 563e 77a9 8cbc 5b42 933e
00000010: 2229 933e 3061 aebe c4d2 66be 4fcd aabe
00000020: 18b8 3c3f aa4d e6bc 3f7e 70bf 4e11 c23e
00000030: 480b 033e 5147 d33d 42bd 453d 357a 7dbe
00000040: 75c7 0bbf 3765 b63e 0ca3 3e3f 0a22 c23d
00000050: 26c1 c13e 99ee 05be 70b0 a83e adf4 18be
00000060: d3d5 d0bd 8469 b83d 1b47 eb3d fb96 e53d
00000070: 8166 1d3c 697c e9be 3507 92bf 7254 00ba

enc1.conv1.bn.running_var f4 [32]
0.059551336 0.06714226 0.08822059 0.24231167 0.51865304 0.18537986 0.21898715 0.11710333
0.49326143 0.33091873 0.46054548 0.2353207 0.22403225 0.09514508 0.15620741 0.17281894
0.20172751 0.114847764 0.2505842 0.111253604 0.104692265 0.09750686 0.34951723 0.11439786
0.2780009 0.06340081 0.15019865 0.09943623 0.027978498 0.2149974 1.0330704 0.1474871
00000000: 1aec 733d e281 893d ffac b43d 8d20 783e
00000010: 72c6 043f 38d4 3d3e 2b3e 603e dfd3 ef3d
00000020: c38c fc3e 2e6e a93e 9ecc eb3e e9f7 703e
00000030: b668 653e 6cdb c23d d6f4 1f3e 73f7 303e
00000040: a891 4e3e 4e35 eb3d 924c 803e eed8 e33d
00000050: e668 d63d adb1 c73d ecf3 b23e 6d49 ea3d
00000060: 2256 8e3e 49d8 813d adcd 193e 39a5 cb3d
00000070: 2a33 e53c 4728 5c3e a73b 843f dc06 173e

enc1.conv2.depthwise.weight f4 [32, 1, 3, 3]
0.052699085 0.19614379 0.29422283 -0.29173055 -0.05269745 -0.23572975 -0.121777214 -0.08058881
0.13008294 0.28421533 -0.115897045 -0.11423029 -0.011215272 -0.3775931 0.11380833 0.33127034
-0.03536602 -0.23083617 0.20922324 0.19611475 0.07622784 0.42286518 -0.073742524 -0.15142828
-0.015370832 0.18892013 -0.2055905 -0.43741143 -0.46677628 -0.15516508 -0.02388407 0.12288905
-0.061597794 0.05069569 -0.16690183 0.02837926 0.3519008 0.26309982 0.14863294 0.20351596
-0.19951667 0.3791832 0.1890833 -0.12993966 0.34568015 -0.31637603 0.18032667 -0.34245685
-0.087789334 -0.14371005 -0.23280908 -0.20507167 -0.11163941 -0.25383654 -0.2685653 -0.5521277
-0.11476137 -0.10166863 -0.23448162 -0.38167894 -0.04799581 -0.4307962 0.25219372 0.06899402
0.28717154 -0.17931573 -0.056187548 -0.26732835 -0.35749117 0.16980278 0.31760228 -0.43572342
0.23628537 0.026842814 0.25784636 -0.02884365 0.42317113 0.36889866 0.43766743 0.31575733
-0.033239897 -0.06422605 -0.034956988 0.033598118 0.02192002 0.11116096 0.49960414 -0.037795596
0.4469336 0.22288401 0.2684024 0.41992193 0.30771682 0.19010583 0.025661586 0.037863817
0.18031502 0.19704436 -0.036377806 -0.32276878 -0.5185116 -0.078047425 0.21424016 0.0732253
0.24053344 -0.34031507 -0.25860834 0.03050691 0.16702598 -0.037521604 -0.21760117 -0.3058481
-0.12701423 -0.3054827 -0.20496106 -0.16660805 -0.075278156 -0.0812426 -0.09432401 -0.045372423
-0.20595339 -0.028221825 -0.1779003 0.18065743 0.3990805 0.27703565 -0.22502823 -0.21136566
-0.38332435 -0.20300722 0.026520181 0.34714398 -0.36171445 -0.12939379 0.07094991 -0.3442311
-0.21609034 0.065244615 -0.31873357 0.024302775 -0.20634647 0.26515147 -0.031265326 -0.06869092
-0.092696704 0.24872819 0.3427185 0.17756115 -0.15303317 -0.0831557 -0.013767656 0.031665716
0.4234963 0.0511919 0.15529056 -0.0247401 -0.07324726 -0.15200862 -0.092607126 -0.12538655
0.023896167 -0.53542244 0.091311425 -0.12989654 0.10031188 -0.42619145 -0.14275692 -0.53899974
-0.051541932 0.39730197 0.4534193 0.31825146 0.27857795 0.08322721 0.088201456 -0.20264623
0.060789015 0.00056871097 -0.23558106 -0.4441162 -0.24774839 -0.16389203 0.2005916 -0.15350425
0.26626348 0.06725915 -0.32840005 -0.2642168 0.49124667 0.43881568 -0.10661195 0.24502954
-0.05210909 -0.18757232 0.069426276 0.24595478 -0.35770014 0.24085025 0.21370575 -0.23967236
0.33768207 0.35628536 -0.226715 0.049887296 0.35550132 0.31182313 0.025805153 0.17827883
0.27658504 -0.0346177 0.17071733 0.15417877 -0.43909928 0.17631532 0.32863137 -0.42787886
0.30310845 -0.05836314 -0.31530556 -0.2715334 -0.33872214 -0.33373386 0.37442166 -0.23895712
0.05549169 -0.019635864 -0.13356754 -0.00020287624 0.3645816 0.3664839 0.03658766 0.01160811
0.08875366 -0.11981492 -0.3482557 -0.0034469056 -0.15638715 -0.44701603 -0.03299603 0.052518573
0.024578353 -0.16558966 0.24214266 0.19103009 -0.0007260551 0.20596607 -0.3278237 -0.005711054
0.27305493 -0.2568632 -0.4269994 0.06299372 -0.26166192 -0.30205637 -0.39076698 0.003632351
00000000: ffda 573d ebd9 483e 60a4 963e b55d 95be
00000010: 48d9 57bd 2463 71be 5566 f9bd bf0b a5bd
00000020: 7634 053e ac84 913e 6e5b edbd 92f1 e9bd
00000030: 43c0 37bc e253 c1be 5714 e93d 449c a93e
00000040: f6db 10bd 5160 6cbe 9e3e 563e 4ed2 483e
00000050: 571d 9c3d c981 d83e 5206 97bd 0410 1bbe
00000060: f1d5 7bbc 4774 413e 5186 52be 64f4 dfbe
00000070: 4dfd eebe 98e3 1ebe 86a8 c3bc 41ad fb3d
00000080: f84d 7cbd 49a6 4f3d 50e8 2abe 9f7b e83c
00000090: 572c b43e 05b5 863e 3c33 183e 7d66 503e
000000a0: 194e 4cbe 4d24 c23e 0d9f 413e e70e 05be
000000b0: fdfc b03e 0afc a1be 8ea7 383e 8156 afbe
000000c0: e5ca b3bd ba28 13be 8165 6ebe 4ffe 51be
000000d0: 34a3 e4bd ddf6 81be 6481 89be 3e58 0dbf
000000e0: 0208 ebbd a537 d0bd f31b 70be 6c6b c3be
000000f0: 4197 44bd 5291 dcbe 891f 813e bd4c 8d3d
00000100: 2608 933e 8b9e 37be ea24 66bd 43df 88be
00000110: 1509 b7be c8e0 2d3e c49c a23e 2417 dfbe
00000120: cbf4 713e 76e5 db3c 7004 843e 8549 ecbc
00000130: e3a9 d83e 49e0 bc3e f215 e03e f2aa a13e
00000140: 8f26 08bd f388 83bd 0f2f 0fbd 2e9e 093d
00000150: 9d91 b33c 5ba8 e33d 1dcc ff3e 8ecf 1abd
00000160: 7bd4 e43e b53b 643e 0a6c 893e 0200 d73e
00000170: 0f8d 9d3e 1aab 423e 3f38 d23c 1717 1b3d
00000180: 80a4 383e ffc5 493e e500 15bd f341 a5be
00000190: 2dbd 04bf 54d7 9fbd c661 5b3e 25f7 953d
000001a0: 664e 763e c73d aebe 5068 84be a1e9 f93c
000001b0: dc08 2b3e 41b0 19bd d7d2 5ebe 1f98 9cbe
000001c0: 0510 02be 3a68 9cbe 50e1 51be 4d9b 2abe
000001d0: 6f2b 9abd 8562 a6bd f22c c1bd 6fd8 39bd
000001e0: 72e5 52be 7531 e7bc 7f2b 36be 43fe 383e
000001f0: 4754 cc3e 9ed7 8d3e cd6d 66be 3d70 58be
00000200: 1743 c4be 20e1 4fbe da40 d93c dbbc b13e
00000210: a332 b9be ce7f 04be 304e 913d 0f3f b0be
00000220: c946 5dbe f89e 853d 0c31 a3be 9d16 c73c
00000230: 7d4c 53be efc1 873e 1210 00bd d3ad 8cbd
00000240: c5d7 bdbd 9ab2 7e3e cd78 af3e 97d2 353e
00000250: bab4 1cbe 894d aabd bc91 61bc e9b3 013d
00000260: 82d4 d83e 99ae 513d 7d04 1f3e c0ab cabc
00000270: a902 96bd 26a8 1bbe cea8 bdbd 5565 00be
00000280: e5c1 c33c 7211 09bf 7c01 bb3d 9903 05be
00000290: 5170 cd3d c435 dabe df2e 12be e3fb 09bf
000002a0: a21d 53bd 2a6b cb3e 9326 e83e dbf1 a23e
000002b0: c5a1 8e3e 0773 aa3d f7a2 b43d 7e82 4fbe
000002c0: e7fd 783d 8c15 153a 293c 71be 3363 e3be
000002d0: c1b1 7dbe 50d3 27be e267 4d3e 3830 1dbe
000002e0: b053 883e 2abf 893d 0d24 a8be 6d47 87be
000002f0: af84 fb3e 73ac e03e 5e57 dabd 06e9 7a3e
00000300: 5770 55bd f512 40be 5d2f 8e3d 92db 7b3e
00000310: 7924 b7be 73a1 763e aed5 5a3e ac6c 75be
00000320: aae4 ac3e 096b b63e fa27 68be 9f56 4c3d
00000330: 4504 b63e 48a7 9f3e 5465 d33c ba8e 363e
00000340: 8e9c 8d3e 4acb 0dbd 86d0 2e3e 0ae1 1d3e
00000350: 9fd1 e0be 018c 343e 5f42 a83e f012 dbbe
00000360: 0831 9b3e 300e 6fbd bb6f a1be 6d06 8bbe
00000370: fd6c adbe 2adf aabe 32b4 bf3e 2db1 74be
00000380: 414b 633d 64db a0bc eec5 08be 2dbb 54b9
00000390: 71aa ba3e c7a3 bb3e f1dc 153d f12f 3e3c
000003a0: 7bc4 b53d 8661 f5bd 924e b2be 7be5 61bb
000003b0: f423 20be 49df e4be d826 07bd b71d 573d
000003c0: 8b58 c93c 5690 29be 3ff4 773e 649d 433e
000003d0: bc54 3eba c5e8 523e 82d8 a7be cb23 bbbb
000003e0: dbcd 8b3e 9383 83be aa9f dabe da02 813d
000003f0: 8df8 85be 22a7 9abe 9c12 c8be bd0c 6e3b

enc1.conv2.pointwise.weight f4 [32, 32, 1, 1]
-0.0067407973 0.13926736 -0.06523141 0.035757173 0.16820054 -0.1622057 0.2682713 -0.03698091
-0.1014457 0.113880605 -0.1678964 -0.05724102 -0.020929044 -0.036923062 0.29159692 0.23813334
-0.23680413 -0.19997652 -0.16817978 0.03417332 -0.011327421 0.28646553 -0.055099286 0.10584435
0.013462871 0.38402507 0.13106482 0.08803105 -0.037292637 0.04261268 -0.21842411 0.4464765
-0.23006348 -0.15716593 0.31440425 -0.06283479 -0.14690419 -0.020209465 0.012834924 -0.32298565
-0.024910871 -0.039662533 0.14924642 0.543602 -0.014779445 0.115919605 -0.18717103 0.28984085
-0.11144961 -0.045724977 -0.43529192 -0.29274124 -0.19376439 0.12662615 0.05057416 -0.000983114
0.16136374 0.3179831 -0.3914628 -0.2438505 0.23572248 -0.23814477 -0.27180108 -0.046190605
0.2019477 -0.116073065 -0.267068 0.24337278 0.08714424 -0.28118968 -0.041841883 0.103586964
-0.32301402 0.20422411 0.0019191832 0.03239814 0.095111966 0.16486564 0.0118536735 0.3301032
0.29737842 0.17889604 0.045753516 0.09246483 0.14392544 -0.044326235 0.038424216 -0.0066013495
-0.10149814 -0.19984196 0.29582065 -0.008023147 0.2826254 -0.41106892 0.14296688 -0.23365022
0.13452403 0.045778967 -0.046855126 -0.2786884 -0.03791509 -0.14738318 0.022878151 -0.14745381
-0.26286623 -0.1656855 -0.31583035 -0.25924253 -0.10124033 -0.1011429 0.24614942 0.16686161
0.10180716 0.29440436 -0.16627295 0.051145386 0.10402916 0.28984454 -0.29987994 -0.27522627
0.12987988 -0.1645456 0.08466969 0.5330897 0.27350774 -0.100033164 -0.013069181 0.058217525
0.17601955 -0.03824022 -0.023966024 -0.14875391 0.057170074 0.10177813 0.060039837 -0.027046423
0.18374859 -0.01965896 -0.0023093892 0.09436222 -0.14715134 0.4219621 -0.14923707 0.033580687
0.08467899 0.05689781 -0.3571394 -0.2445422 -0.060733218 0.07522972 0.076929115 -0.14306651
-0.4699933 -0.15728138 -0.050676744 -0.02991904 0.344243 0.06636301 -0.37866247 0.12231612
-0.20498472 -0.12960356 0.13789226 0.11534409 -0.29101145 0.033489797 -0.019626765 0.24084306
-0.29129466 -0.12272157 -0.055808786 0.17711745 0.3290007 0.1903457 0.15454878 -0.060456626
-0.09253746 0.033193137 -0.13890193 0.17805985 0.6362732 -0.21646212 -0.1187165 0.13092284
-0.24582168 0.1473212 -0.078686714 -0.1988055 0.17432794 -0.009355252 -0.11107629 0.33240414
0.09862211 -0.40135983 -0.18446077 0.19750522 -0.05507755 -0.02351931 -0.37290516 -0.2101975
0.14808968 -0.0369036 -0.08724677 0.2159077 0.04544116 0.22587344 -0.43574962 0.040088244
0.023314534 -0.21702777 0.042011984 -0.29027793 -0.15129001 -0.2868415 0.3217619 0.16755205
0.19758785 0.019535659 -0.08741258 0.24032874 -0.08702054 -0.18083066 0.120642014 -0.27344835
0.043544307 0.47451738 0.3061139 0.18424492 0.09502225 0.364276 0.14507216 0.097779386
0.011645224 -0.0071517224 0.0062897205 -0.04123823 0.08260925 0.083734035 0.26144823 0.21279822
0.4331894 -0.1284441 -0.1325439 0.5453828 -0.0050261607 -0.12803863 0.3000702 0.06646464
-0.13909854 -0.1553257 0.58623093 -0.129344 0.11201141 0.21884872 0.035510886 -0.014844066
00000000: e8e1 dcbb 1a9c 0e3e 0c98 85bd 1d76 123d
00000010: c33c 2c3e 4019 26be db5a 893e 4b79 17bd
00000020: c3c2 cfbd 3c3a e93d 09ed 2bbe 8f75 6abd
00000030: 6373 abbc a33c 17bd 314c 953e 3ad9 733e
00000040: c87c 72be a5c6 4cbe 5237 2cbe 53f9 0b3d
00000050: a696 39bc 9cab 923e caaf 61bd ecc4 d83d
00000060: 6093 5c3c ef9e c43e db35 063e a049 b43d
00000070: 2ac0 18bd a28a 2e3d 92aa 5fbe 9198 e43e
00000080: c395 6bbe 1bf0 20be 98f9 a03e 87af 80bd
00000090: 0d6e 16be 528e a5bc 9349 523c 605e a5be
000000a0: e211 ccbc 2e75 22bd 0ed4 183e 8029 0b3f
000000b0: 7c25 72bc 4267 ed3d c3a9 3fbe 0566 943e
000000c0: b13f e4bd 1d4a 3bbd 95de debe 2ee2 95be
000000d0: 2c6a 46be 49aa 013e da26 4f3d d5db 80ba
000000e0: 893c 253e aece a23e d06d c8be f2b3 79be
000000f0: 3c61 713e 39dc 73be 8329 8bbe 5c32 3dbd
00000100: 61cb 4e3e b7b7 edbd 23bd 88be b736 793e
00000110: ae78 b23d 18f8 8fbe 6562 2bbd 6725 d43d
00000120: 1862 a5be 2020 513e 1a8d fb3a e9b3 043d
00000130: 10ca c23d 8ad2 283e e935 423c 4903 a93e
00000140: fc41 983e 8630 373e 0a68 3b3d 335e bd3d
00000150: 3161 133e 6d8f 35bd b662 1d3d 2250 d8bb
00000160: 42de cfbd 5fa3 4cbe ce75 973e 8473 03bc
00000170: 47b4 903e a077 d2be e965 123e 0142 6fbe
00000180: abc0 093e ba82 3b3d 29eb 3fbd 3fb0 8ebe
00000190: da4c 1bbd 9eeb 16be f66a bb3c 22fe 16be
000001a0: 6796 86be 76a9 29be 84b4 a1be 70bb 84be
000001b0: 1757 cfbd 0224 cfbd 980e 7c3e c5dd 2a3e
000001c0: 4680 d03d 2bbc 963e 7543 2abe d37d 513d
000001d0: 3e0d d53d 8166 943e dd89 99be 75ea 8cbe
000001e0: 3bff 043e a47e 28be 4d67 ad3d 9178 083f
000001f0: 3509 8c3e 30de ccbd 1e20 56bc 8075 6e3d
00000200: 783e 343e c7a1 1cbd 6554 c4bc f252 18be
00000210: 2b2b 6a3d 0d71 d03d 55ec 753d 7690 ddbc
00000220: 9728 3c3e d40b a1bc 1f59 17bb fb40 c13d
00000230: d7ae 16be 6b0b d83e 9ad1 18be e78b 093d
00000240: 2e6c ad3d ae0d 693d fada b6be 4569 7abe
00000250: 65c3 78bd 0a12 9a3d 038d 9d3d 0780 12be
00000260: f6a2 f0be 5f0e 21be 6b92 4fbd c618 f5bc
00000270: 9e40 b03e 54e9 873d 0ce0 c1be e080 fa3d
00000280: 84e7 51be ccb6 04be a133 0d3e 8639 ec3d
00000290: 74ff 94be 992c 093d 4fc8 a0bc 909f 763e
000002a0: 9324 95be 7255 fbbd c197 64bd 475e 353e
000002b0: c872 a83e fce9 423e 0942 1e3e 5ea1 77bd
000002c0: 4884 bdbd 87f5 073d 4f3c 0ebe 5255 363e
000002d0: cde2 223f 3fa8 5dbe a321 f3bd a310 063e
000002e0: aeb8 7bbe 5edb 163e 8026 a1bd ab93 4bbe
000002f0: 0683 323e c546 19bc f77b e3bd e030 aa3e
00000300: 64fa c93d 097f cdbe 49e3 3cbe cf3e 4a3e
00000310: ff98 61bd 91ab c0bc 6ded bebe 033e 57be
00000320: d2a4 173e 3b28 17bd 6fae b2bd e816 5d3e
00000330: 8320 3a3d 5e4b 673e 931a dfbe 9233 243d
00000340: 1ffe be3c 873c 5ebe c214 2c3d 4f9f 94be
00000350: c5eb 1abe e4dc 92be fabd a43e c492 2b3e
00000360: 7854 4a3e 3f09 a03c 5e05 b3bd bd18 763e
00000370: d337 b2bd ac2b 39be 2913 f73d 6c01 8cbe
00000380: 845b 323d f1f3 f23e f6ba 9c3e b3aa 3c3e
00000390: 079b c23d 6282 ba3e cc8d 143e 8f40 c83d
000003a0: 9ccb 3e3c ff58 eabb 001a ce3b 6be9 28bd
000003b0: 0a2f a93d c07c ab3d 8bdc 853e c7e7 593e
000003c0: 00cb dd3e da86 03be 97b9 07be 359e 0b3f
000003d0: 7eb2 a4bb 8f1c 03be cda2 993e 9d1e 883d
000003e0: d96f 0ebe b30d 1fbe 3b13 163f c172 04be
000003f0: 3d66 e53d e119 603e dd73 113d 8734 73bc

enc1.conv2.bn.weight f4 [32]
0.7880011 0.7085959 0.9690575 0.9691637 0.619085 1.0492083 0.8439641 1.0735909
0.7143474 0.8024616 0.6011969 0.9071182 1.0513669 0.73190784 0.7308267 0.8883185
1.1957718 1.0477275 1.0606807 0.8425767 0.9771218 0.8980285 0.8757322 0.96258146
0.9697233 0.6289043 0.6672229 0.9519291 0.802948 0.7963498 0.8239072 0.8609438
00000000: 71ba 493f 8a66 353f 2714 783f 1d1b 783f
00000010: 5b7c 1e3f 754c 863f 080e 583f 6d6b 893f
00000020: 79df 363f 206e 4d3f 0ae8 193f e638 683f
00000030: 3193 863f 505e 3b3f 7517 3b3f d768 633f
00000040: 0d0f 993f ef1b 863f 63c4 873f 1bb3 573f
00000050: a724 7a3f 32e5 653f fc2f 603f bd6b 763f
00000060: c93f 783f dfff 203f 1fcf 2a3f a0b1 733f
00000070: 008e 4d3f 95dd 4b3f 95eb 523f d066 5c3f

enc1.conv2.bn.bias f4 [32]
0.03884833 -0.264539 0.15117459 0.13302507 -0.29453838 0.3230757 -0.062604666 0.5985359
0.25450763 -0.25658566 0.0077455016 -0.017839484 0.19397148 -0.27004343 0.011882437 0.22783534
-0.023380633 0.25668672 0.24723446 -0.21156259 0.45850545 -0.16755961 0.063838705 0.10401402
0.09200354 0.06774697 0.07390947 -0.044850327 -0.22223535 0.011707143 0.2723576 0.03839615
00000000: 6d1f 1f3d a871 87be 83cd 1a3e b937 083e
00000010: bccd 96be 2e6a a53e e036 80bd a639 193f
00000020: d34e 823e 325f 83be facd fd3b 1c24 92bc
00000030: 76a0 463e 2243 8abe 8eae 423c ab4d 693e
00000040: be88 bfbc 716c 833e 082b 7d3e dda3 58be
00000050: 3ac1 ea3e bf94 2bbe debd 823d 4d05 d53d
00000060: 5a6c bc3d ecbe 8a3d d95d 973d fab4 37bd
00000070: aa91 63be 51cf 3f3c 7572 8b3e 4845 1d3d

enc1.conv2.bn.running_mean f4 [32]
-0.43084046 -0.16589834 -0.32317528 -0.69347227 0.2798452 -1.0270661 0.2874543 -0.2695192
-0.7022536 -0.30274293 -0.9374082 -0.48033968 -1.1433177 0.17284548 0.10705749 -0.48126268
-0.5521951 -1.3514916 -1.395595 -0.6104274 0.38284752 -0.20680146 -0.70292044 0.054801524
-0.4058103 -0.99140733 0.58852935 0.650997 -0.006115976 -1.4518828 -0.79688394 -0.6604913
00000000: 1f97 dcbe 41e1 29be 3b77 a5be 6687 31bf
00000010: df47 8f3e e776 83bf 362d 933e 6cfe 89be
00000020: e4c6 33bf 1f01 9bbe fcf9 6fbf 15ef f5be
00000030: 3c58 92bf 68fe 303e f540 db3d 1068 f6be
00000040: a85c 0dbf adfd acbf dba2 b2bf f844 1cbf
00000050: 9704 c43e c3c3 53be 98f2 33bf 9077 603d
00000060: 5ec6 cfbe dfcc 7dbf dca9 163f bda7 263f
00000070: 8668 c8bb 4cd7 b9bf 9600 4cbf f515 29bf

enc1.conv2.bn.running_var f4 [32]
0.79264945 0.72359926 0.8408144 1.8266717 0.8892861 0.9906192 0.8358836 0.4113779
0.4785699 0.9413336 1.9490483 1.7591418 2.291219 0.8695397 0.3275723 1.4987115
0.56013155 1.769902 3.1948025 1.5285174 0.3734249 0.6601479 1.4526652 0.30992296
0.27833626 1.8098624 0.4423938 1.1851717 0.47117335 2.4172413 0.7112689 1.3925143
00000000: 13eb 4a3f cd3d 393f 9d3f 573f 61d0 e93f
00000010: 41a8 633f 3899 7d3f 78fc 553f 20a0 d23e
00000020: 1d07 f53e 3dfb 703f 6a7a f93f 8f2b e13f
00000030: 55a3 1240 279a 5e3f 8eb7 a73e c7d5 bf3f
00000040: c864 0f3f 268c e23f a577 4c40 75a6 c33f
00000050: 8c31 bf3e 74ff 283f eff0 b93f 39ae 9e3e
00000060: 1782 8e3e 92a9 e73f 7181 e23e b5b3 973f
00000070: a23d f13e 15b4 1a40 b815 363f e93d b23f

enc2.conv1.depthwise.weight f4 [32, 1, 3, 3]
0.33310473 0.17714225 -0.32922545 0.11414123 -0.29540655 -0.027355723 0.06549656 0.2333357
0.38311043 0.07312645 0.026033642 -0.049461577 -0.0044625103 -0.29014003 0.08763295 0.41071746
-0.18364726 -0.17589664 0.045400463 -0.11321788 -0.21314833 0.30808163 -0.25362942 -0.3865627
0.2559999 -0.30138037 -0.2547747 -0.24173167 -0.11969285 -0.053307652 0.0088240085 0.3898538
0.29819328 -0.10706617 0.29886025 0.546151 0.3491731 0.01783986 -0.19721636 0.02507081
0.12795044 0.36022514 -0.36233193 0.17277803 0.05570491 -0.20774418 0.20151806 -0.15444173
-0.014338594 -0.33486786 -0.02993141 -0.26300073 -0.03534037 -0.074260555 0.14776583 0.28042835
0.30261868 0.11336293 0.10572822 -0.15242152 0.414551 0.41763914 -0.049335204 0.33641195
0.023461364 -0.4490065 0.20664862 0.21613309 -0.17798899 0.12298316 0.1493504 -0.3070823
0.18817459 -0.06554841 0.35521048 0.055543862 -0.16056485 0.0036876095 -0.13024415 -0.42405036
-0.33762562 -0.29009786 -0.3186823 -0.32814026 0.1924903 0.28405312 -0.061409682 -0.23310295
-0.33040905 0.28061137 -0.033231825 -0.21155207 -0.29087344 0.24796605 0.30152124 -0.20279351
0.32959044 0.31116396 -0.4628801 -0.05371459 -0.07136014 -0.07033353 0.078369156 -0.105550036
0.41796294 0.19803225 0.37879 0.50439924 0.50486416 -0.06281316 0.50759923 -0.12613828
0.45075428 0.34875882 -0.12331238 0.011403421 0.51669836 -0.21601155 0.25012553 0.2308995
-0.29598513 0.34542176 0.2392312 -0.04150709 -0.057433996 -0.1757967 0.12560874 0.14950731
-0.18976021 -0.1895259 0.34240156 -0.008775591 0.25720426 0.35239187 -0.009448678 0.23781407
-0.26444033 -0.4424348 0.27992526 -0.33618015 0.290127 0.20019491 0.19877493 0.046476234
-0.3216026 -0.27358577 -0.37189406 0.441224 0.10571786 -0.2858377 0.47052857 0.19275787
-0.18965773 0.43877712 0.46092278 0.34400153 0.19863823 0.23992898 -0.019927112 0.34735253
0.03552267 0.3675884 -0.33153564 0.05527646 -0.10702619 -0.36883476 -0.33322948 0.12862279
-0.1114682 -0.30564332 0.20274699 -0.15836722 -0.08943385 0.48104823 -0.2885164 0.15508942
0.17191236 -0.24998036 -0.24337132 0.18902826 0.39753854 0.18514647 -0.08426714 0.52320355
-0.23929505 -0.3148178 0.20181398 -0.39130145 -0.34183744 -0.2570477 -0.3766712 -0.21173528
0.228361 -0.18859094 -0.07430565 0.3175947 0.24811463 0.3522889 0.25240344 0.22588821
-0.041410066 -0.12321133 0.3843345 0.4565041 -0.2780346 -0.16147333 -0.03900387 -0.009580094
-0.12363575 0.38254312 -0.12797804 -0.24299552 0.22895867 -0.34767997 -0.19720387 0.0061529293
-0.14179048 -0.007744666 -0.3020115 -0.16170634 0.0062221973 -0.19952874 -0.16438647 -0.3922503
0.0192288 0.14713946 -0.21855111 0.118301876 0.25180012 -0.2547065 0.2713049 0.3486396
-0.12030293 -0.029166164 -0.30168048 -0.35737854 -0.0118277315 0.28229874 0.29092684 0.59131205
-0.11372029 -0.27257237 0.07897672 -0.32922778 -0.071770355 0.04758033 -0.5020409 -0.28063583
-0.16092263 0.3353404 0.24456823 -0.089000925 -0.07705361 -0.35160097 -0.14876086 0.14766836
00000000: b48c aa3e c764 353e 3d90 a8be e1c2 e93d
00000010: 873f 97be 1c19 e0bc 0f23 863d 8eef 6e3e
00000020: 0d27 c43e 52c3 953d 8144 d53c 3998 4abd
00000030: 403a 92bb 3c8d 94be e778 b33d 8f49 d23e
00000040: 070e 3cbe 401e 34be d6f5 393d c7de e7bd
00000050: 8e43 5abe e0bc 9d3e b7db 81be 8ceb c5be
00000060: 6b12 833e 874e 9abe d471 82be 8288 77be
00000070: 8621 f5bd 2059 5abd 9392 103c eb9a c73e
00000080: caac 983e 8245 dbbd 3604 993e 8dd0 0b3f
00000090: d1c6 b23e e624 923c 16f3 49be 4d61 cd3c
000000a0: 7105 033e 6e6f b83e 9283 b9be b9ec 303e
000000b0: d52a 643d e4ba 54be c05a 4e3e f925 1ebe
000000c0: 6cec 6abc cd73 abbe b732 f5bc 08a8 86be
000000d0: 10c1 10bd eb15 98bd ed4f 173e 4e94 8f3e
000000e0: d6f0 9a3e d32a e83d 0988 d83d 6314 1cbe
000000f0: 0740 d43e ccd4 d53e b613 4abd 303e ac3e
00000100: 0c32 c03c 2ee4 e5be b29b 533e fe51 5d3e
00000110: bf42 36be 98de fb3d 50ef 183e e439 9dbe
00000120: d7b0 403e 3f3e 86bd 26de b53e f681 633d
00000130: 1d6b 24be d2ab 713b b95e 05be 211d d9be
00000140: 44dd acbe b587 94be 542a a3be 0002 a8be
00000150: 2d1c 453e 696f 913e b888 7bbd 8ab2 6ebe
00000160: 602b a9be 4bac 8f3e 181e 08bd 1ba1 58be
00000170: 5ded 94be d0ea 7d3e fe60 9a3e 1aa9 4fbe
00000180: 14c0 a83e e250 9f3e 9ffe ecbe d403 5cbd
00000190: 4425 92bd 070b 90bd 0280 a03d 9e2a d8bd
000001a0: 3dff d53e f7c8 4a3e c3f0 c13e 4f20 013f
000001b0: c73e 013f 30a4 80bd 06f2 013f 652a 01be
000001c0: 44c9 e63e 8490 b23e 338b fcbd 6ad5 3a3c
000001d0: 5846 043f 2232 5dbe 7410 803e eb70 6c3e
000001e0: 5d8b 97be 1fdb b03e 06f9 743e 5703 2abd
000001f0: e93f 6bbd 0d04 34be 949f 003e 7218 193e
00000200: 8050 42be 1413 42be 424f af3e 7fc7 0fbc
00000210: 47b0 833e b56c b43e a1ce 1abc 8885 733e
00000220: b964 87be d086 e2be 5d52 8f3e ce1f acbe
00000230: 878b 943e e5ff 4c3e a88b 4b3e dd5d 3e3d
00000240: 19a9 a4be 6f13 8cbe e668 bebe 1de8 e13e
00000250: 9b82 d83d 5259 92be 1fe9 f03e 5262 453e
00000260: a335 42be 65a7 e03e 12fe eb3e f820 b03e
00000270: d267 4b3e f1af 753e 2f3e a3bc 31d8 b13e
00000280: 3880 113d 8c34 bc3e 0abf a9be 9269 623d
00000290: 8c30 dbbd e9d7 bcbe 0e9d aabe b1b5 033e
000002a0: 7149 e4bd 487d 9cbe e89c 4f3e 042b 22be
000002b0: 1829 b7bd f44b f63e 6cb8 93be c3cf 1e3e
000002c0: cb09 303e dafa 7fbe 5536 79be a090 413e
000002d0: 2c8a cb3e 0997 3d3e 4094 acbd abf0 053f
000002e0: c309 75be cc2f a1be 53a8 4e3e aa58 c8be
000002f0: 5105 afbe c29b 83be 0cdb c0be 22d1 58be
00000300: 77d7 693e fc1d 41be 902d 98bd c69b a23e
00000310: c311 7e3e 365f b43e 063b 813e 3d4f 673e
00000320: 9a9d 29bd 3956 fcbd 7ec7 c43e e8ba e93e
00000330: 8d5a 8ebe 4459 25be 86c2 1fbd d4f5 1cbc
00000340: bd34 fdbd b1dc c33e ad0c 03be d1d3 78be
00000350: 2474 6a3e 1c03 b2be d0ef 49be 839e c93b
00000360: 8631 11be f8c6 fdbb 40a1 9abe 5996 25be
00000370: 93e3 cb3b 4351 4cbe ed54 28be 08d5 c8be
00000380: b785 9d3c baab 163e ddcb 5fbe 4148 f23d
00000390: f2eb 803e e468 82be 7ae8 8a3e e480 b23e
000003a0: 6261 f6bd e1ed eebc dd75 9abe 52fa b6be
000003b0: 1ac9 41bc 7689 903e 5df4 943e 3a60 173f
000003c0: 2fe6 e8bd 9b8e 8bbe 8cbe a13d 8b90 a8be
000003d0: 56fc 92bd 98e3 423d c185 00bf 80af 8fbe
000003e0: e7c8 24be bdb1 ab3e 1870 7a3e 1e46 b6bd
000003f0: 48ce 9dbd 0b05 b4be c454 18be 6036 173e
