src/deblur_models/best_model_mosaic10.pth (torch, 585909 bytes, 83 tensors)

initial_conv.0.weight f4 [32, 3, 3, 3]
0.054435328 0.10818705 0.31673 0.09674869 0.25590593 0.20754717 0.18801032 0.32313097
0.38859016 -0.2557267 -0.0834783 0.09417785 -0.1014709 -0.23491983 0.047465153 0.025862994
-0.10705191 0.19171625 0.07059032 0.18620083 0.09990177 0.066824526 0.11690146 0.031941157
0.14767909 -0.04120953 0.20622073 -0.17983407 0.23861945 -0.27057928 0.019527683 -0.046101917
-0.2483638 -0.37741148 -0.21020965 -0.7484627 0.11807661 0.09520385 0.22647335 0.28204975
0.040283877 0.07368937 -0.1654584 -0.30131716 -0.062741645 -0.024149895 -0.027801951 -0.092898786
-0.07327445 0.2793731 -0.10801524 0.006196713 -0.15169454 -0.06307067 0.52136356 0.35783845
0.13771428 0.5979778 0.43050683 0.009710045 0.24875353 0.40446258 0.047590014 0.20972194
-0.09235769 -0.020707252 0.21309835 -0.10398345 0.18826029 0.25042287 -0.015974399 0.06809665
-0.09584441 0.10988821 -0.07903688 0.24273537 -0.12669507 0.10654439 -0.02508229 0.14497264
-0.1597044 -0.06932471 0.23154354 0.14430434 0.2222573 0.19405007 0.43221307 0.4363668
0.6184568 0.47519135 -0.09336569 0.053520855 0.057011977 0.0015319358 -0.085922115 -0.09613791
-0.024259884 0.07932573 -0.18379512 0.042211358 -0.22179154 -0.19348238 -0.2207088 0.10160372
0.090523794 -0.19514054 0.059354197 0.11782931 -0.11452133 0.0050385552 -0.114458986 0.24218795
0.17291784 0.4797314 0.15698348 0.41231906 0.81267196 -0.07077981 -0.29311806 -0.14932626
0.037700254 -0.089378886 0.055669475 -0.16377671 0.157004 0.18470742 -0.040407587 -0.21673624
-0.1503316 -0.0963881 0.15489256 0.056162346 0.19942622 0.11006371 0.031460837 0.14060035
0.18448368 -0.0429096 0.016728995 0.2279451 -0.023638023 -0.010072173 0.00028682643 -0.17073452
0.017963633 0.07498388 -0.22769567 -0.089518726 -0.08284757 -0.291863 -0.025382213 -0.1961881
-0.291735 0.122119404 0.18681765 -0.14773948 0.1100299 0.23377728 -0.31401658 -0.2003101
0.29139712 -0.07726593 -0.16175272 -0.07894196 -0.27772588 -0.012036632 -0.287502 -0.2184173
-0.23036793 -0.17853846 0.049100406 0.100770056 -0.10639773 -0.0187458 0.019665115 -0.04246413
-0.061849155 0.02203082 0.18766674 0.19630371 0.16192308 0.17086138 0.20839481 0.09651595
-0.060491774 0.19848847 -0.061045803 0.22861953 0.24235126 -0.10316976 0.23881273 0.02069949
0.10849738 -0.034569014 -0.0990237 0.12997435 0.2323858 0.08642768 -0.22096947 0.024201415
0.03934976 0.028827468 0.17087127 -0.099087045 -0.14119624 0.20620213 0.2106497 0.07148027
0.18525289 -0.019383114 0.041070357 0.32932097 0.3686397 -0.008479302 0.46810034 0.15261409
0.19045901 0.11863053 -0.049057353 0.19581376 0.045654956 -0.10883104 0.13152115 0.07913842
0.094777405 -0.19727811 -0.20465009 -0.22149538 -0.08039882 0.09592359 0.0195803 0.070004664
-0.016526822 0.1288581 -0.10820382 -0.2912754 -0.40692443 -0.22548822 -0.49524155 -0.39828664
-0.041298367 -0.33004555 -0.0017295554 -0.18914826 -0.3097282 -0.2761447 0.036822528 -0.028039074
-0.164481 -0.0892272 -0.19437392 -0.28717875 -0.08733692 0.06698497 -0.039522294 0.15553571
00000000: 94f7 5e3d 2c91 dd3d 6f2a a23e 2d24 c63d
00000010: 1a06 833e 3f87 543e c785 403e 6c71 a53e
00000020: 4af5 c63e 9cee 82be acf6 aabd 51e0 c03d
00000030: facf cfbd d38e 70be d26a 423d a1de d33c
00000040: 083e dbbd 4451 443e a891 903d 6eab 3e3e
00000050: 4d99 cc3d 4cdb 883d 086a ef3d bbd4 023d
00000060: 3039 173e 53cb 28bd 872b 533e 6c26 38be
00000070: a858 743e 5e89 8abe 85f8 9f3c 5dd5 3cbd
00000080: 1453 7ebe 143c c1be 3341 57be 409b 3fbf
00000090: 26d2 f13d 3cfa c23d a1e8 673e d368 903e
000000a0: b500 253d 74ea 963d ed6d 29be 3e46 9abe
000000b0: b17e 80bd 00d6 c5bc ebc0 e3bc b841 bebd
000000c0: ea10 96bd fe09 8f3e 1837 ddbd cc0d cb3b
000000d0: d055 1bbe 322b 81bd 1578 053f 9a36 b73e
000000e0: f904 0d3e 1315 193f 646b dc3e e116 1f3c
000000f0: 3fb9 7e3e b815 cf3e bfed 423d 59c1 563e
00000100: 0726 bdbd 41a2 a9bc 7436 5a3e 46f5 d4bd
00000110: 4ec7 403e 6d37 803e bedc 82bc 4276 8b3d
00000120: 134a c4bd 120d e13d 16de a1bd 9f8f 783e
00000130: 5abc 01be f233 da3d 6079 cdbc b573 143e
00000140: 8d89 23be 1dfa 8dbd c019 6d3e 84c4 133e
00000150: 6b97 633e 10b5 463e 084b dd3e 786b df3e
00000160: 2f53 1e3f 484c f33e 8336 bfbd af38 5b3d
00000170: 6485 693d 3ccb c83a eff7 afbd f4e3 c4bd
00000180: aabc c6bc 8775 a23d ca34 3cbe d1e5 2c3d
00000190: 521d 63be 3f20 46be 7d01 62be 9c15 d03d
000001a0: 8a64 b93d ecd2 47be 631d 733d 7e50 f13d
000001b0: 298a eabd 771a a53b 7969 eabd 1e00 783e
000001c0: 6011 313e 5b9f f53e 47c0 203e 7c1b d33e
000001d0: 450b 503f 01f5 90bd 9213 96be fce8 18be
000001e0: 956b 1a3d 470c b7bd ad05 643d 15b5 27be
000001f0: a8c5 203e f123 3d3e 6d82 25bd 1bf0 5dbe
00000200: 87f0 19be 2067 c5bd 289c 1e3e 7d0a 663d
00000210: 6336 4c3e 1569 e13d 14dd 003d 8af9 0f3e
00000220: 4ae9 3c3e fac1 2fbd 3f0b 893c 716a 693e
00000230: 87a4 c1bc c105 25bc 3161 9639 08d5 2ebe
00000240: 7828 933c 2691 993d 0e29 69be 9855 b7bd
00000250: fdab a9bd 116f 95be 5cee cfbc 89e5 48be
00000260: 4a5e 95be bd19 fa3d 204d 3f3e 0549 17be
00000270: 5b57 e13d 5063 6f3e c8c6 a0be 171e 4dbe
00000280: 0132 953e 9a3d 9ebd 81a2 25be 53ac a1bd
00000290: 1632 8ebe 4b35 45bc 7633 93be c9a8 5fbe
000002a0: 92e5 6bbe c9d2 36be 821d 493d 8860 ce3d
000002b0: 0ee7 d9bd cb90 99bc bc18 a13c deee 2dbd
000002c0: 8a55 7dbd fa79 b43c b62b 403e d703 493e
000002d0: 2acf 253e 49f6 2e3e 7365 553e 28aa c53d
000002e0: 39c6 77bd 9040 4b3e 2a0b 7abd 3d1b 6a3e
000002f0: ee2a 783e ab4a d3bd 538b 743e fa91 a93c
00000300: e033 de3d 3d98 0dbd f0cc cabd ff17 053e
00000310: 8bf6 6d3e ff00 b13d d245 62be 0c42 c63c
00000320: 372d 213d 9527 ec3c e1f8 2e3e 26ee cabd
00000330: bf95 10be a726 533e 8eb4 573e 3f64 923d
00000340: efb2 3d3e 56c9 9ebc 6439 283d c29c a83e
00000350: 58be bc3e c5ec 0abc d9aa ef3e de46 1c3e
00000360: b007 433e 90f4 f23d 5df0 48bd 6783 483e
00000370: b100 3b3d cfe2 debd 7bad 063e 5313 a23d
00000380: a81a c23d 4603 4abe cb8f 51be afcf 62be
00000390: 23a8 a4bd 9673 c43d de66 a03c 9b5e 8f3d
000003a0: 4263 87bc 61f3 033e f799 ddbd 0d22 95be
000003b0: 6658 d0be 62e6 66be 4d90 fdbe 3aec cbbe
000003c0: 7a28 29bd bbfb a8be 40b2 e2ba 15b0 41be
000003d0: b294 9ebe d762 8dbe 38d3 163d 33b2 e5bc
000003e0: b56d 28be c0bc b6bd f509 47be 1809 93be
000003f0: b3dd b2bd 6a2f 893d 21e2 21bd c144 1f3e

initial_conv.1.weight f4 [32]
0.92705864 1.0729063 1.0304666 0.9834572 1.0374482 1.0322905 1.2118566 1.0560422
1.2019485 1.3523543 1.1396749 0.96356726 1.1423593 0.9550137 1.0523555 0.9914348
1.0114667 1.0686215 1.1197691 0.96898234 1.2016144 1.0148995 0.9991444 1.033367
1.0191994 1.179869 1.0460948 0.93423635 0.8180341 0.99338233 1.0185505 1.0267413
00000000: b753 6d3f fe54 893f 54e6 833f dac3 7b3f
00000010: 1acb 843f 1822 843f 1e1e 9b3f 642c 873f
00000020: 73d9 993f f219 ad3f dee0 913f 58ac 763f
00000030: d438 923f c77b 743f 96b3 863f acce 7d3f
00000040: be77 813f 97c8 883f 9854 8f3f 3a0f 783f
00000050: 80ce 993f 3ae8 813f edc7 7f3f 5f45 843f
00000060: 2075 823f f305 973f 6fe6 853f 1d2a 6f3f
00000070: af6a 513f 4e4e 7e3f dd5f 823f 426c 833f

initial_conv.1.bias f4 [32]
-0.28213286 0.08169006 -0.02193916 -0.16354406 0.014748797 0.22637348 -0.2509958 0.059840586
0.05215151 0.25561753 0.38712752 -0.2137569 0.17168278 0.03529588 0.06426336 -0.054004252
-0.07253832 -0.051543117 -0.26926327 -0.0013029316 0.011771034 -0.18295935 0.0030986045 0.022356015
0.32609656 0.4124132 -0.12417773 0.49481875 -0.2445633 0.25625345 -0.036345556 0.050316654
00000000: b873 90be 1e4d a73d c1b9 b3bc 1878 27be
00000010: f0a4 713c 73ce 673e 8682 80be 671b 753d
00000020: d29c 553d 4de0 823e 9435 c63e 17e3 5abe
00000030: 9ccd 2f3e 6a92 103d 829c 833d 9033 5dbd
00000040: f98e 94bd e01e 53bd e0dc 89be 21c7 aaba
00000050: 4cdb 403c b259 3bbe f511 4b3b f623 b73c
00000060: 21f6 a63e d327 d33e e550 febd e258 fd3e
00000070: cd6e 7abe a733 833e 14df 14bd d618 4e3d

initial_conv.1.running_mean f4 [32]
1.1157076 -0.8978336 1.7196401 1.1227231 0.9371764 -0.19844632 -0.21251002 0.9007779
-0.54959816 -0.237096 -0.23951507 1.5525135 -1.0283283 0.22605608 0.7249158 0.62780803
-0.9415386 -0.914551 0.34319952 0.22208932 -0.10291106 -0.27556252 1.3646197 0.50134075
0.3795305 0.14189045 -1.3623319 0.3089362 0.8418456 0.28891838 0.915236 -0.5723889
00000000: 82cf 8e3f 6cd8 65bf 2b1d dc3f 64b5 8f3f
00000010: cbea 6f3f 8335 4bbe 3a9c 59be 6199 663f
00000020: 77b2 0cbf 4bc9 72be 7043 75be c3b8 c63f
00000030: 43a0 83bf 3f7b 673e 1594 393f 07b8 203f
00000040: ac08 71bf 0420 6abf d9b7 af3e 626b 633e
00000050: 09c3 d2bd 8816 8dbe dcab ae3f de57 003f
00000060: d251 c23e bb4b 113e e460 aebf e32c 9e3e
00000070: 3183 573f 1ced 933e e84c 6a3f 1488 12bf

initial_conv.1.running_var f4 [32]
0.35259137 0.22222693 0.81592697 0.33205914 0.24082796 0.02136372 0.032525327 0.28630668
0.19548978 0.032219402 0.024557501 0.63642186 0.32158762 0.022042165 0.20558171 0.26132083
0.24237488 0.29875702 0.049310204 0.02319369 0.05738902 0.03524532 0.51813406 0.08596982
0.051761866 0.026350364 0.52764916 0.04131998 0.20211138 0.03681659 0.25866386 0.10855703
00000000: db86 b43e 758f 633e 97e0 503f a803 aa3e
00000010: 9b9b 763e f802 af3c 4739 053d ca96 923e
00000020: 792e 483e 7ef8 033d d02c c93c 8bec 223f
00000030: 22a7 a43e c591 b43c 0384 523e d8cb 853e
00000040: 1f31 783e aef6 983e 7ff9 493d b200 be3c
00000050: c010 6b3d 665d 103d 6fa4 043f f210 b03d
00000060: 4004 543d b8dc d73c 0414 073f 243f 293d
00000070: 49f6 4e3e fecc 163d 976f 843e 2653 de3d

enc1.conv1.depthwise.weight f4 [32, 1, 3, 3]
0.1982281 -0.21293232 0.0081113 0.18477504 -0.013489555 0.31161812 0.20108952 -0.15386674
0.2949903 0.09250205 0.39342886 -0.35523745 0.17935811 0.46457925 -0.096371904 -0.41899988
0.13772461 -0.442253 0.29948136 0.3505271 -0.014732738 0.32552665 0.15253116 0.2986446
0.35689914 0.27800006 0.1800514 -0.05404838 -0.1765655 0.15414646 -0.17386776 0.11332777
-0.26446077 0.30378523 -0.015835209 0.28362873 -0.1546568 0.18035716 -0.225841 -0.17530434
0.04826256 0.22979411 -0.102297455 0.30268908 0.28843588 0.27550977 -0.008892715 0.20128986
0.29963574 -0.16022982 0.120409705 -0.14317106 -0.49684528 -0.23301029 0.0109475115 0.07635819
0.18716963 -0.030005781 -0.122206956 -0.15348783 0.16548567 0.16625439 0.1829515 -0.28750023
-0.03529906 0.17755555 -0.10740829 -0.37400115 0.33568907 0.21710165 -0.0066682585 0.05671235
0.07322775 -0.43544048 -0.040711083 -0.1795973 0.15788378 -0.2642328 -0.12526353 0.42581454
0.3475898 0.13363086 0.11118914 0.39795247 -0.29079357 0.0043708556 -0.36113372 0.0212991
0.15872343 -0.19297329 0.34277564 -0.28431043 0.31676283 -0.1516015 -0.35224468 0.18864085
0.17155029 -0.37594017 0.1696022 0.40904617 0.054888226 0.17036653 -0.089551926 0.2820133
0.033540618 0.085426085 -0.11584204 0.33729827 -0.3428729 0.24808434 0.3261556 -0.2880543
-0.19090246 -0.0032274718 -0.21259584 -0.00017066237 0.45200872 0.16292195 -0.24460143 -0.15507704
0.09244928 0.3390721 0.15693836 0.22234638 0.30990955 0.26809892 0.058036577 -0.116269924
0.15134852 0.18167183 0.37128845 0.19988471 -0.34153822 -0.22248484 -0.31058636 -0.28608155
0.073976964 -0.03215122 0.23065388 -0.21750653 0.08591745 0.22828485 -0.05358652 0.21780096
-0.0015560135 0.13646616 -0.3722597 0.12542446 0.3349386 -0.22472423 -0.100687675 0.2839757
0.32632378 0.39108163 -0.010743963 -0.28336775 -0.23178189 -0.0126624005 -0.2824151 0.18864444
-0.27953127 0.264689 -0.20136355 -0.44956 0.20921741 0.19889286 -0.03592948 0.025600407
0.15096267 -0.26180756 0.3600445 -0.41120347 0.23993975 -0.016762951 -0.08891134 0.13828707
-0.27302197 -0.019066036 0.37590188 0.15607326 0.10802174 -0.1743534 -0.27238914 -0.04555867
-0.29358998 -0.024232978 0.06428623 0.013170778 -0.07799599 -0.22886533 -0.28022456 -0.2672641
0.11885525 0.32345602 -0.023692302 0.38874608 -0.14737764 0.057361886 -0.137796 0.30783355
0.14672264 0.23359476 0.16473718 0.21206933 0.28928244 -0.14057247 -0.094034225 0.3032774
0.042335834 -0.092517324 0.03440581 0.17607434 0.10654601 -0.111570865 -0.29688412 -0.13351081
0.17915048 -0.19653721 -0.14143665 0.0327955 -0.20461763 0.1280385 0.30910972 0.008741307
-0.11620368 0.05292115 -0.4120107 0.18273866 0.1655409 -0.25244194 -0.10792726 0.16858926
0.19650723 0.09395419 0.19329526 0.36245692 0.40189955 -0.021203294 0.37120134 0.07671911
0.05742067 -0.2567133 0.3009573 -0.38733998 0.013165354 -0.29920274 0.14724748 0.331541
0.13083482 0.15820953 0.1749846 -0.21814209 -0.014095312 0.04001836 0.3070382 0.20878272
00000000: 4ffc 4a3e ee0a 5abe 42e5 043c ab35 3d3e
00000010: 4b03 5dbc 698c 9f3e 69ea 4d3e 3e8f 1dbe
00000020: f808 973e b771 bd3d 826f c93e afe1 b5be
00000030: a7a9 373e 55dd ed3e a25e c5bd 2787 d6be
00000040: ae07 0d3e fc6e e2be 9f55 993e 4a78 b33e
00000050: 9561 71bc 6eab a63e 2131 1c3e f2e7 983e
00000060: 7cbb b63e 0656 8e3e 655f 383e d661 5dbd
00000070: 96cd 34be 92d8 1d3e 640a 32be 6418 e83d
00000080: 6767 87be bd89 9b3e d7b8 81bc c937 913e
00000090: 5a5e 1ebe 8caf 383e dd42 67be fb82 33be
000000a0: f6ae 453d 264f 6b3e 5481 d1bd 10fa 9a3e
000000b0: dead 933e 9e0f 8d3e c0b2 11bc ee1e 4e3e
000000c0: db69 993e 4913 24be 5d99 f63d 6f9b 12be
000000d0: 8162 febe 409a 6ebe 315d 333c af61 9c3d
000000e0: 65a9 3f3e afce f5bc a447 fabd ea2b 1dbe
000000f0: 1375 293e 973e 2a3e a357 3b3e 3b33 93be
00000100: bf95 10bd 1fd1 353e e1f8 dbbd 147d bfbe
00000110: 70df ab3e e54f 5e3e 6881 dabb 364b 683d
00000120: 6ef8 953d 0ef2 debe aac0 26bd 5be8 37be
00000130: 49ac 213e 8649 87be 1545 00be 5d04 da3e
00000140: 4af7 b13e 87d6 083e 22b7 e33d 6dc0 cb3e
00000150: e5e2 94be 6539 8f3b 85e6 b8be 737b ae3c
00000160: 6588 223e ca9a 45be 4a80 af3e 2391 91be
00000170: bd2e a23e 6c3d 1bbe 6a59 b4be 112b 413e
00000180: e1aa 2f3e 3b7b c0be 33ac 2d3e 806e d13e
00000190: 7ad2 603d 9074 2e3e 0067 b7bd 0c64 903e
000001a0: e361 093d dff3 ae3d 973e edbd 5cb2 ac3e
000001b0: 098d afbe d209 7e3e defd a63e da7b 93be
000001c0: ef7b 43be fe83 53bb b9b2 59be d5f3 32b9
000001d0: b06d e73e 03d5 263e cc78 7abe 84cc 1ebe
000001e0: 0c56 bd3d dc9a ad3e 73b4 203e c5ae 633e
000001f0: 77ac 9e3e 4344 893e c3b7 6d3d ed1e eebd
00000200: 1bfb 1a3e 2e08 3a3e 8519 be3e 94ae 4c3e
00000210: 19de aebe 11d3 63be 2d05 9fbe 4879 92be
00000220: 3c81 973d ffb0 03bd 8830 6c3e 08ba 5ebe
00000230: 7df5 af3d 81c3 693e 8a7d 5bbd 3707 5f3e
00000240: 26f3 cbba c9bd 0b3e d398 bebe 456f 003e
00000250: 127d ab3e 1c1e 66be 5735 cebd 4365 913e
00000260: e913 a73e da3b c83e 7207 30bc 9415 91be
00000270: 3b58 6dbe f575 4fbc b698 90be 022c 413e
00000280: b91e 8fbe 5185 873e 3f32 4ebe ba2c e6be
00000290: 173d 563e 92aa 4b3e ca2a 13bd f2b7 d13c
000002a0: f595 1a3e a40b 86be c157 b83e 4389 d2be
000002b0: c4b2 753e 7552 89bc 2617 b6bd 209b 0d3e
000002c0: 89c9 8bbe 6030 9cbc 3676 c03e abd1 1f3e
000002d0: 813a dd3d b389 32be 9776 8bbe ba9b 3abd
000002e0: 6d51 96be 3d84 c6bc 80a8 833d 3fca 573c
000002f0: 5dbc 9fbd ac5b 6abe 9879 8fbe d7d6 88be
00000300: 626a f33d 079c a53e 5c16 c2bc ba09 c73e
00000310: 2aea 16be 4cf4 6a3d 651a 0dbe 5c9c 9d3e
00000320: 763e 163e 7733 6f3e ddb0 283e b428 593e
00000330: d41c 943e 3bf2 0fbe 0495 c0bd 2d47 9b3e
00000340: 5768 2d3d b979 bdbd 1bed 0c3d d54c 343e
00000350: cb34 da3d 447f e4bd 3201 98be 0fb7 08be
00000360: 3973 373e 0d41 49be c5d4 10be 9354 063d
00000370: 4987 51be 861c 033e a143 9e3e b337 0f3c
00000380: 32fc edbd d9c3 583d 11f3 d2be d81f 3b3e
00000390: 8e83 293e 1240 81be f808 ddbd aaa2 2c3e
000003a0: 3139 493e 0e6b c03d 31ef 453e f493 b93e
000003b0: c7c5 cd3e 88b2 adbc 1a0e be3e e91e 9d3d
000003c0: f031 6b3d ed6f 83be 1317 9a3e 6d51 c6be
000003d0: 7fb3 573c 1a31 99be 0bc8 163e bebf a93e
000003e0: 90f9 053e ae01 223e 2a2f 333e a460 5fbe
000003f0: 06f0 66bc 4bea 233d 1c34 9d3e 23cb 553e

enc1.conv1.pointwise.weight f4 [32, 32, 1, 1]
-0.10713881 0.16306739 -0.15688205 0.19604489 -0.22475423 0.07746046 0.09510955 -0.34710792
-0.49942616 0.33831188 0.23504075 -0.06349234 -0.039016996 -0.2761464 0.002795931 -0.17743069
-0.251231 0.054449987 -0.24311204 -0.08053849 0.18987088 -0.1589618 -0.074397184 0.098087825
0.16333695 -0.006775934 0.013565806 0.34695944 -0.017302005 0.20526525 0.20885701 -0.07519636
-0.038404036 0.2489212 -0.12801285 0.31211117 -0.019354753 0.19086285 -0.008181208 0.44730362
-0.0027784943 0.0005717931 -0.07583859 -0.008159422 -0.27829364 -0.04075273 -0.06956027 0.25361922
-0.09316142 -0.1765218 -0.102879256 0.034983855 -0.010429531 0.5543113 -0.059829254 -0.20081694
0.12340006 0.039879028 0.027452445 0.025584541 0.11693875 0.092256345 0.08227315 -0.23956391
-0.11501165 -0.3255442 0.0124661 0.08878659 0.07412975 -0.1578705 0.020749787 -0.042532362
-0.11334753 -0.11258435 -0.47048655 -0.05620821 0.42407906 -0.10277493 0.06889413 -0.1523905
0.028923895 -0.11000197 -0.15372384 0.14073904 -0.05268326 -0.24307045 -0.14300612 0.24672446
0.27430567 0.0592484 -0.022615215 -0.10319821 0.02032493 -0.1551173 -0.09346179 0.43706238
0.052504756 0.21186212 -0.21066225 -0.011965354 -0.064473815 0.22791085 -0.1517615 0.17118642
-0.020041855 -0.07003007 0.019434186 -0.21337213 -0.6860212 -0.059890453 0.028430182 -0.047344152
0.041004766 0.25186488 0.0053919908 0.0629164 -0.19337048 0.2840699 -0.0949294 -0.24432945
0.085235015 0.048239507 0.14062814 -0.13792987 0.071615584 0.2877823 -0.06344971 0.2983575
-0.10225238 -0.3492002 0.077148296 -0.03048485 0.13741894 -0.023892224 -0.09460957 0.19476384
-0.51366645 -0.20889302 -0.027031198 -0.03299467 -0.39993083 0.013986103 -0.33559793 0.2128848
0.029602833 0.3175189 0.1892859 0.033229496 0.04234315 -0.0026493466 -0.030631248 -0.053065453
0.16317137 0.21065907 0.132436 0.42855453 -0.44896725 0.24790843 -0.06804573 -0.033394087
0.41242653 0.21785116 0.2662328 -0.023289282 -0.076703124 0.122372776 0.119286776 0.0039505865
0.20002982 0.024730533 0.047430277 0.08452783 -0.09965034 0.1914736 0.027298955 -0.19996536
0.116169795 -0.03246112 -0.05445538 0.31352085 -0.12035708 0.23648074 0.12577397 0.08728018
0.08869149 -0.028792903 0.08744679 -0.010281289 -0.24831086 0.068817 -0.09289631 -0.09884327
0.14246479 0.04349798 -0.15911743 0.4436332 0.23481345 0.44896743 0.101204164 0.47480258
-0.1592341 -0.13307981 -0.1416073 0.038967695 -0.2677658 0.14107257 -0.104947865 -0.040194765
0.06739389 0.1504526 0.09836439 0.3493167 -0.14302194 -0.083658524 -0.050913278 -0.01572228
0.33178845 -0.011323408 0.05575685 0.010427081 0.021102566 0.13599652 -0.45829505 0.08340629
-0.06812503 -0.0066453083 0.1256951 -0.08001709 -0.23716992 -0.13095106 -0.014420023 -0.20669387
0.2846354 -0.20075004 0.03188843 -0.025987234 0.22626598 -0.15377133 -0.05066369 0.12472689
-0.14839506 0.0113250725 0.3768215 -0.0051498427 -0.1297183 0.19511157 -0.17022105 0.03480321
0.0034720157 0.16243751 -0.14635228 0.19057406 0.20494783 0.026129019 0.25492623 -0.42351916
00000000: 986b dbbd 23fb 263e b0a5 20be febf 483e
00000010: f925 66be 97a3 9e3d ccc8 c23d 21b8 b1be
00000020: c9b4 ffbe 3737 ad3e 86ae 703e 4608 82bd
00000030: 49d0 1fbd 1063 8dbe f03b 373b 64b0 35be
00000040: 5aa1 80be f306 5f3d 5df2 78be 5df1 a4bd
00000050: 836d 423e e2c6 22be 8d5d 98bd 45e2 c83d
00000060: cd41 273e a708 debb 1d43 5e3c aba4 b13e
00000070: efbc 8dbc 0e31 523e 9dde 553e 8d00 9abd
00000080: 8d4d 1dbd 33e5 7e3e cd15 03be 09cd 9f3e
00000090: dc8d 9ebc 8d71 433e 790a 06bc fb04 e53e
000000a0: 6617 36bb 63e4 153a 4351 9bbd 19af 05bc
000000b0: 817c 8ebe 56ec 26bd 9d75 8ebd 61da 813e
000000c0: 6acb bebd 21c2 34be 5cb2 d2bd 3b4b 0f3d
000000d0: a0e0 2abc 58e7 0d3f 850f 75bd f5a2 4dbe
000000e0: 2cb9 fc3d 3158 233d f3e3 e03c ac96 d13c
000000f0: 957d ef3d e5f0 bc3d d37e a83d 3e50 75be
00000100: 3a8b ebbd bbad a6be 9d3e 4c3c bed5 b53d
00000110: 57d1 973d cea8 21be 75fb a93c 6a36 2ebd
00000120: c022 e8bd a092 e6bd 9de3 f0be 943a 66bd
00000130: e420 d93e aa7b d2bd 5e18 8d3d 410c 1cbe
00000140: cef1 ec3c b648 e1bd c869 1dbe e51d 103e
00000150: 67ca 57bd 76e7 78be 3270 12be 56a5 7c3e
00000160: cb71 8c3e 73ae 723d 8b43 b9bc 9559 d3bd
00000170: 7880 a63c 12d7 1ebe e568 bfbd a4c6 df3e
00000180: 3a0f 573d 62f2 583e d8b7 57be 550a 44bc
00000190: d90a 84bd 7661 693e 5e67 1bbe 7e4b 2f3e
000001a0: d12e a4bc ed6b 8fbd 7134 9f3c 397e 5abe
000001b0: 169f 2fbf b14f 75bd 6ae6 e83c f1eb 41bd
000001c0: 9df4 273d 6ff4 803e 4caf b03b 50da 803d
000001d0: e902 46be 9c71 913e 586a c2bd 8031 7abe
000001e0: b28f ae3d ca96 453d d300 103e 7d3d 0dbe
000001f0: 31ab 923d 3458 933e ecf1 81bd 50c2 983e
00000200: b269 d1bd 5eca b2be edff 9d3d 5dbb f9bc
00000210: 8db7 0c3e a0b9 c3bc aac2 c1bd 2c70 473e
00000220: a57f 03bf 0de8 55be 8870 ddbc 6b25 07bd
00000230: bcc3 ccbe f825 653c 7ed3 abbe 79fe 593e
00000240: a481 f23c d691 a23e 2ad4 413e a71b 083d
00000250: 0370 2d3d a9a0 2dbb 62ee fabc 295b 59bd
00000260: 6516 273e 03b7 573e 4e9d 073e 806b db3e
00000270: 09df e5be b5db 7d3e 8f5b 8bbd 3dc8 08bd
00000280: 9229 d33e 6014 5f3e aa4f 883e 2ac9 bebc
00000290: 8716 9dbd 949e fa3d a04c f43d ec73 813b
000002a0: 9ed4 4c3e b097 ca3c 4046 423d ed1c ad3d
000002b0: 7a15 ccbd a811 443e 0fa2 df3c b8c3 4cbe
000002c0: 6eea ed3d f4f5 04bd 9b0c 5fbd ce85 a03e
000002d0: c67d f6bd 0228 723e e4ca 003e f3bf b23d
000002e0: e2a3 b53d 18df ebbc 4d17 b33d da72 28bc
000002f0: 3445 7ebe edef 8c3d 6c40 bebd 576e cabd
00000300: 4ae2 113e f02a 323d aeef 22be e423 e33e
00000310: f072 703e 0fdf e53e 2144 cf3d 5319 f33e
00000320: 440e 23be 1346 08be 8101 11be 979c 1f3d
00000330: 9918 89be 5475 103e e8ee d6bd 44a3 24bd
00000340: cf05 8a3d 3f10 1a3e 4573 c93d a3d9 b23e
00000350: 5874 12be 2955 abbd 718a 50bd 03cc 80bc
00000360: 2de0 a93e d185 39bc 4b61 643d 59d6 2a3c
00000370: 4adf ac3c ac42 0b3e a6a5 eabe ebd0 aa3d
00000380: 2385 8bbd e3c0 d9bb 37b6 003e 00e0 a3bd
00000390: acdc 72be 0918 06be f641 6cbc 8fa7 53be
000003a0: bbbb 913e 6b91 4dbe 719d 023d 2ee3 d4bc
000003b0: 45b2 673e 3b76 1dbe bb84 4fbd d070 ff3d
000003c0: e0f4 17be cc8c 393c bfee c03e 03c0 a8bb
000003d0: e0d4 04be 54cb 473e 6d4e 2ebe d08d 0e3d
000003e0: c28a 633b 0556 263e 5fdd 15be d925 433e
000003f0: d8dd 513e 860c d63c b185 823e 81d7 d8be

enc1.conv1.bn.weight f4 [32]
0.93182933 1.0540528 0.93186504 0.99927413 0.95246136 1.069001 0.73573995 0.90075356
0.9541995 1.0499066 0.8597402 0.95262367 0.98925424 0.8639104 0.90005594 1.1824089
0.83903414 0.986544 1.017878 1.0304776 1.0081162 1.0602826 0.9831155 0.9764525
0.9144456 1.0368315 1.0991973 0.9850805 1.0400501 1.0270079 0.93733263 1.00448
00000000: 5e8c 6e3f 34eb 863f b58e 6e3f 6ed0 7f3f
00000010: 82d4 733f 06d5 883f 7459 3c3f c997 663f
00000020: 6b46 743f 5763 863f ef17 5c3f 25df 733f
00000030: c43f 7d3f 3b29 5d3f 116a 663f 2d59 973f
00000040: f1ca 563f 268e 7c3f d449 823f b1e6 833f
00000050: f409 813f 57b7 873f 75ad 7b3f cbf8 793f
00000060: 1b19 6a3f e5b6 843f 7fb2 8c3f 3c2e 7c3f
00000070: 5d20 853f ff74 833f 08f5 6f3f cd92 803f

enc1.conv1.bn.bias f4 [32]
0.04644392 0.165817 -0.1978978 -0.12190205 0.0063873404 -0.0745848 0.52167755 -0.13551313
0.20412372 0.13618115 0.009562213 -0.078207426 0.0034476 0.09730071 -0.018488528 0.14743212
-0.26421362 -0.023976594 -0.063554764 -0.0021585496 -0.16064891 0.06851453 -0.00195573 0.09561055
-0.16164729 0.2247773 -0.033521097 0.7933614 -0.1576795 0.032333624 -0.20057769 0.68855304
00000000: fb3b 3e3d efcb 293e b9a5 4abe c8a7 f9bd
00000010: e54c d13b eabf 98bd a98c 053f f4c3 0abe
00000020: cf05 513e 1273 0b3e d4aa 1c3c 372b a0bd
00000030: 21f1 613b 9845 c73d 4175 97bc 72f8 163e
00000040: 0247 87be 906a c4bc 0029 82bd 7476 0dbb
00000050: 2681 24be 5951 8c3d b42b 00bb 77cf c33d
00000060: de86 25be 052c 663e 6b4d 09bd bc19 4b3f
00000070: bc76 21be 4370 043d 3d64 4dbe 0345 303f

enc1.conv1.bn.running_mean f4 [32]
-0.44817176 -0.14335044 -0.09745162 -0.24347901 0.18598408 0.6141241 0.076692544 -0.12854402
-0.085391216 0.111364745 -0.006346836 -0.073822804 0.104291424 -0.11219528 0.03524993 0.026412508
0.21585006 0.22167619 -0.1264962 -0.3085163 0.5515404 -0.13756078 -0.53711915 0.25281093
-0.13298738 0.03956535 0.5083368 -0.011676825 0.3217956 0.059866555 0.4457698 0.07841805
00000000: c576 e5be 75ca 12be b794 c7bd 9052 79be
00000010: 9c72 3e3e 3d37 1d3f fb10 9d3d 0ba1 03be
00000020: 97e1 aebd 3313 e43d 1ff9 cfbb 6930 97bd
00000030: be96 d53d a4c6 e5bd 3b62 103d 0b5f d83c
00000040: cc07 5d3e 15ff 623e 3888 01be d9f5 9dbe
00000050: c031 0d3f bcdc 0cbe a480 09bf 6f70 813e
00000060: d82d 08be 470f 223d 5c22 023f 2750 3fbc
00000070: 65c2 a43e a236 753d f03b e43e a599 a03d

enc1.conv1.bn.running_var f4 [32]
0.1923657 0.05331892 0.059961587 0.26721385 0.032746464 0.35568509 0.067276776 0.045599688
0.1909978 0.053152975 0.1220194 0.1616042 0.16045468 0.05913006 0.026696999 0.07175908
0.10330093 0.0939917 0.096453264 0.1407552 0.15638274 0.103905216 0.23230186 0.122589745
0.060001045 0.045507487 0.26431596 0.03259732 0.1843156 0.15039307 0.077944025 0.04832221
00000000: 84fb 443e f164 5a3d 489a 753d 41d0 883e
00000010: 2821 063d 5b1c b63e 68c8 893d bdc6 3a3d
00000020: ed94 433e efb6 593d 4fe5 f93d 927b 253e
00000030: 3b4e 243e 5d32 723d aab3 da3c 6df6 923d
00000040: 708f d33d b87e c03d 4a89 c53d 2222 103e
00000050: cc22 203e 42cc d43d 8ae0 6d3e 5510 fb3d
00000060: a8c3 753d 0f66 3a3d 6c54 873e c484 053d
00000070: 3bbd 3c3e a400 1a3e 1ea1 9f3d 82ed 453d

enc1.conv2.depthwise.weight f4 [32, 1, 3, 3]
0.23659055 0.33944157 -0.018132957 0.12837397 -0.25938013 -0.19963847 0.3056232 0.20578945
0.08764793 -0.16204824 0.19840485 -0.11443995 0.3756986 -0.15458441 0.46215764 -0.042054065
-0.21650746 -0.37369794 0.2866042 -0.3621979 0.24175207 -0.08813389 -0.23886728 -0.20743132
0.513813 0.16095059 0.07759115 -0.11949738 -0.23027427 -0.23801358 0.031100415 -0.21023777
-0.21696839 -0.11660603 -0.011246309 -0.16680203 0.09633989 -0.15847403 0.27440068 0.068792835
-0.3706886 -0.33579654 0.21919309 -0.022048865 0.27729714 0.35645452 0.034173474 0.10583069
0.34541774 0.43910733 0.13952759 0.33517525 0.15727499 0.23357064 -0.2957006 -0.1984459
0.2714502 -0.04109846 0.3216879 0.38007724 0.012141523 -0.19850893 0.06315814 0.29661697
0.034379754 -0.29813662 0.24913575 -0.32381135 -0.30557293 0.021059789 -0.0061806943 -0.020387152
-0.43164134 -0.20140529 -0.042674106 -0.24433027 -0.0060013942 -0.07787727 0.27665004 0.08149553
0.07800084 -0.26791513 -0.27351698 -0.32331398 -0.008843998 0.10151559 0.30265614 0.23218518
-0.00835755 0.16670969 -0.35379377 0.051279552 0.3582961 0.1347284 -0.26097926 -0.03500871
0.07070649 -0.2833792 -0.2547749 -0.10827829 0.28858656 0.22748788 0.2306885 0.11759287
0.06956847 0.14300686 0.23952346 0.07223146 -0.12850954 0.3685907 0.06288193 0.2881475
-0.24827799 0.240121 0.17844793 0.0010374221 0.23333016 -0.026450513 -0.32115108 0.017779587
-0.18193164 0.21370909 0.12354112 -0.12218821 0.38197267 0.19889405 0.35977834 -0.49171045
-0.14679737 0.031463888 0.14735213 0.23076919 0.14330415 -0.21121585 0.022229668 -0.41266802
-0.31311613 -0.36954847 -0.074558355 0.05274837 0.13938934 0.07980179 0.2705487 0.42364097
-0.0786612 -0.10881382 0.334973 0.13676113 0.296636 0.045641124 0.08270313 -0.10927885
0.03318859 -0.23929505 0.13418469 -0.17543294 -0.29303527 0.26888224 -0.45705447 0.079212695
-0.037239853 0.23941901 -0.22710237 -0.17730825 0.49622205 0.36095208 0.3279073 0.36579219
-0.10109864 0.04426348 0.06551733 0.024284804 -0.062857695 0.16245474 -0.05851178 -0.39475894
-0.2684573 -0.15991913 -0.2009931 -0.028468477 0.1931528 0.3428998 0.10156958 0.18513781
0.032335307 0.40515405 -0.26649657 0.27615705 0.16413477 0.008596822 0.17591508 -0.00048491394
-0.24263848 0.21414977 -0.4431958 0.43520176 -0.008891991 -0.09540636 -0.37868148 -0.17291658
0.031639405 -0.2024119 0.042890698 -0.2364064 -0.1896749 0.18388139 0.12215283 0.30542386
-0.025631377 -0.017872864 -0.25470954 -0.28566903 0.15488885 -0.17866543 -0.24975419 0.19925414
0.13085969 0.29868853 -0.2822609 0.29251954 -0.0822537 -0.3018134 0.055025224 0.2324013
0.38233894 0.0050278865 0.014788219 -0.06216091 0.15233682 0.36367053 0.046761736 -0.43845722
-0.27878556 -0.010191753 -0.36997032 -0.3391979 -0.08998954 0.057750955 0.14042719 -0.20328455
-0.39969552 -0.31910726 0.09103968 -0.14872056 -0.4344272 -0.17499012 0.27662504 -0.3077789
0.14840798 0.13117015 0.1681412 0.2488274 -0.2102747 -0.1719667 0.43078288 0.3336852
00000000: cb44 723e 49cb ad3e 918b 94bc 7774 033e
00000010: 79cd 84be 076e 4cbe a57a 9c3e 78ba 523e
00000020: c280 b33d f9ef 25be a42a 4b3e 7e5f eabd
00000030: 915b c03e 604b 1ebe ed9f ec3e e240 2cbd
00000040: 22b4 5dbe 5655 bfbe c9bd 923e 0172 b9be
00000050: db8d 773e 8a7f b4bd a099 74be e068 54be
00000060: 4089 033f 3bd0 243e 1ce8 9e3d 0bbb f4bd
00000070: 05cd 6bbe d5b9 73be 4cc6 fe3c 9248 57be
00000080: f62c 5ebe 24cf eebd 7042 38bc 27ce 2abe
00000090: d94d c53d 0447 22be 3f7e 8c3e 42e3 8c3d
000000a0: e5ca bdbe 86ed abbe 2774 603e d29f b4bc
000000b0: e4f9 8d3e 3581 b63e 7cf9 0b3d c3bd d83d
000000c0: 98da b03e add2 e03e 52e0 0e3e 179c ab3e
000000d0: b20c 213e 242d 6f3e 1266 97be 6735 4bbe
000000e0: 85fb 8a3e dc56 28bd 47b4 a43e 7c99 c23e
000000f0: 3ded 463c ed45 4bbe 0e59 813d 2ede 973e
00000100: c9d1 0c3d 5da5 98be 711d 7f3e 9aca a5be
00000110: 0e74 9cbe 9485 ac3c 6c87 cabb f502 a7bc
00000120: 1800 ddbe 303d 4ebe 0bcb 2ebd b731 7abe
00000130: 58a7 c4bb 1e7e 9fbd 13a5 8d3e 21e7 a63d
00000140: e8be 9f3d 2c2c 89be 6b0a 8cbe 6989 a5be
00000150: 6be6 10bc 68e7 cf3d bff5 9a3e f4c1 6d3e
00000160: 1bee 08bc f2b5 2a3e 7524 b5be 820a 523d
00000170: 9672 b73e 3ef6 093e 139f 85be 4b65 0fbd
00000180: 90ce 903d 1417 91be db71 82be 02c1 ddbd
00000190: 9ec1 933e 95f2 683e 9b39 6c3e 88d4 f03d
000001a0: ea79 8e3d 6470 123e a345 753e 16ee 933d
000001b0: 0198 03be ecb7 bc3e 3ec8 803d 1288 933e
000001c0: 963c 7ebe 48e2 753e 0ebb 363e 1cfa 873a
000001d0: 1aee 6e3e bfae d8bc ea6d a4be 7fa6 913c
000001e0: 4a4c 3abe 8ed6 5a3e 2003 fd3d d03d fabd
000001f0: ec91 c33e e2aa 4b3e de34 b83e 79c1 fbbe
00000200: 0d52 16be 47e0 003d 7ae3 163e c24e 6c3e
00000210: 53be 123e f848 58be fe1a b63c 3949 d3be
00000220: c250 a0be 7535 bdbe 0db2 98bd ad0e 583d
00000230: 14bc 0e3e 1f6f a33d 5c85 8a3e 78e7 d83e
00000240: 2019 a1bd c8d9 debd 9581 ab3e 1c0b 0c3e
00000250: ace0 973e 30f2 3a3d 4260 a93d 97cd dfbd
00000260: c2f0 073d c309 75be b667 093e b1a4 33be
00000270: b808 96be efaa 893e 0b03 eabe 443a a23d
00000280: d188 18bd 422a 753e 868d 68be 4b90 35be
00000290: d110 fe3e b6ce b83e 77e3 a73e 1d49 bb3e
000002a0: ce0c cfbd 9f4d 353d f32d 863d edf0 c63c
000002b0: 89bb 80bd 895a 263e 0caa 6fbd d81d cabe
000002c0: 3c73 89be d7c1 23be 23d1 4dbe b936 e9bc
000002d0: d9c9 453e 9090 af3e b603 d03d c494 3d3e
000002e0: 0772 043d 5a70 cf3e 3d72 88be 7564 8d3e
000002f0: f212 283e afd9 0c3c 1523 343e 0c3c feb9
00000300: 3976 78be 144a 5b3e 8fea e2be c4d2 de3e
00000310: b7af 11bc 6964 c3bd 8ae2 c1be 0b11 31be
00000320: 5298 013d 1145 4fbe 28ae 2f3d 8514 72be
00000330: 233a 42be 674b 3c3e 432b fa3d 8460 9c3e
00000340: e5f8 d1bc 1d6a 92bc 4a69 82be 3643 92be
00000350: 2f9b 1e3e 12f4 36be 90bf 7fbe 4709 4c3e
00000360: 1500 063e b4ed 983e 8084 90be 1fc5 953e
00000370: a174 a8bd 4987 9abe 2162 613d 9bfa 6d3e
00000380: eec1 c33e f8c0 a43b 494a 723c 709c 7ebd
00000390: 2ffe 1b3e 0633 ba3e 3c89 3f3d 777d e0be
000003a0: fbbc 8ebe 4ffb 26bc c06c bdbe 59ab adbe
000003b0: 704c b8bd 448c 6c3d 25cc 0f3e d329 50be
000003c0: e4a4 ccbe 0762 a3be 0373 ba3d 344a 18be
000003d0: 3e6d debe 9c30 33be cca1 8d3e 3295 9dbe
000003e0: 43f8 173e 7851 063e 352d 2c3e 9ccc 7e3e
000003f0: 4052 57be 0a18 30be 938f dc3e c9d8 aa3e

enc1.conv2.pointwise.weight f4 [32, 32, 1, 1]
0.05616002 -0.20358789 -0.08510907 -0.18666801 0.18875326 -0.21154952 0.33904693 0.037902106
0.15694019 -0.10914328 0.16201223 0.06507491 -0.12414855 -0.08173297 -0.23702239 -0.022598132
-0.24447098 0.25098795 -0.027940024 0.08600595 0.06446409 -0.43258673 0.011616156 0.0874256
-0.42669618 -0.16657354 0.24142201 -0.037534468 -0.3363597 -0.09381905 0.092539765 0.27165186
-0.10114346 -0.17491294 -0.081963524 0.010116674 -0.0041105747 -0.5282433 0.038746335 -0.07554127
0.114251256 0.05029955 0.035388175 -0.15633427 -0.45710573 0.24055293 -0.023836603 -0.18491684
0.002267572 0.081760265 -0.01181097 -0.063736886 0.049850505 -0.039445248 0.16088787 0.26903108
-0.016576422 0.0003091946 -0.035501048 -0.010291486 -0.24787578 -0.72312003 0.046500653 -0.09984438
0.24705954 0.00371552 -0.03588707 0.12320877 -0.06533162 -0.16341178 0.11715942 -0.18601167
-0.005307482 0.123911455 0.1664976 0.19830802 -0.015007068 0.06944355 0.099956885 0.18831484
0.13207799 0.24488272 0.13519427 -0.26185206 -0.4183973 -0.121307544 -0.06182146 0.18947636
0.012534889 0.039215617 0.22052304 -0.03420995 -0.08192688 0.033368614 -0.164549 -0.003303876
0.062457267 -0.121512055 -0.066573076 0.08901039 -0.060856238 -0.41939667 0.11782344 0.040953264
-0.084442444 -0.0060176356 0.05140258 -0.07378971 -0.25477347 0.215048 0.0894026 -0.01731261
0.26695037 -0.13038553 0.07308109 0.0748326 0.11500673 -0.22201331 0.21807015 0.08857065
-0.23884256 -0.023882592 -0.019910263 0.062320054 -0.084703356 -0.08881971 -0.09627486 0.44926828
-0.2115044 -0.20618877 -0.26539496 0.22453025 -0.23083405 0.08596349 -0.16706266 -0.05397983
-0.111123234 0.28883883 0.122493505 -0.1653326 0.08342256 0.06736105 -0.086521 0.029376553
-0.08757074 -0.21242419 -0.10861618 0.17299244 -0.09152295 -0.12725154 0.16343968 -0.29126385
0.12472609 -0.08573434 -0.12465623 0.10295455 0.30174935 -0.008944845 0.21947989 0.07490629
0.07546172 0.27039376 0.018620096 0.20191771 -0.25104636 0.0021254309 -0.35935667 -0.26788276
0.27675042 0.17404044 -0.07905396 0.038422674 -0.19182046 0.41049275 -0.28828225 0.22936948
0.0033835615 -0.17415181 0.22814849 -0.2509315 0.08410634 -0.3097175 0.135986 0.09654673
0.13239752 -0.19707458 -0.10703976 -0.029569063 0.25046244 0.00026110237 -0.00017860699 -0.32566366
-0.20837711 0.049001638 0.1623616 0.24736086 -0.09502066 0.3050297 0.07115968 0.05085943
-0.2368802 0.14743805 -0.2094681 0.06698636 0.11031349 0.039709233 0.12650432 -0.17879702
-0.2026961 -0.16571075 -0.033386517 -0.029532243 0.00615579 -0.13959262 0.2703286 -0.06813503
0.06377328 -0.10255627 -0.12368793 0.028104737 0.06572394 0.14537732 0.31830359 0.06726466
0.14170156 0.10625959 -0.21356748 0.13922937 -0.1326527 -0.23806748 -0.05493773 0.03172715
-0.17477095 -0.037439022 -0.0671943 -0.23925047 -0.29815495 0.15457657 -0.37523457 -0.1586087
-0.039177865 -0.0013996003 -0.09126543 -0.17150469 -0.19281302 0.30050123 -0.1855968 0.3690865
-0.12371431 0.06497118 -0.04797121 0.06587002 -0.041946817 -0.39312074 -0.06774583 -0.31272948
00000000: 0d08 663d 5879 50be aa4d aebd e625 3fbe
00000010: 8948 413e 70a0 58be 8f97 ad3e 3d3f 1b3d
00000020: eeb4 203e 8386 dfbd 89e6 253e ff45 853d
00000030: 9841 febd 9e63 a7bd ffb5 72be b81f b9bc
00000040: 9a56 7abe 7e81 803e 7ae2 e4bc e323 b03d
00000050: c005 843d 027c ddbe b151 3e3c 310c b33d
00000060: ec77 dabe 4192 2abe 5537 773e bebd 19bd
00000070: 5737 acbe 3424 c0bd 7d85 bd3d f415 8b3e
00000080: 4d24 cfbd 611c 33be 7edc a7bd 68c0 253c
00000090: 00b2 86bb f43a 07bf 7ab4 1e3d 62b5 9abd
000000a0: 90fc e93d e706 4e3d 31f3 103d 1716 20be
000000b0: c309 eabe 8253 763e fb44 c3bc d75a 3dbe
000000c0: 8c9b 143b ed71 a73d cc82 41bc 7c88 82bd
000000d0: 0b30 4c3d 5791 21bd cabf 243e 71be 893e
000000e0: 47cb 87bc 661b a239 8c69 11bd 9f9d 28bc
000000f0: 26d3 7dbe 651e 39bf 7877 3e3d 367b ccbd
00000100: 2dfd 7c3e 1580 733b 52fe 12bd e154 fc3d
00000110: 96cc 85bd 6b55 27be 47f1 ef3d d879 3ebe
00000120: 63ea adbb 4ac5 fd3d 597e 2a3e 4211 4b3e
00000130: 35e0 75bc 6c38 8e3d 32b6 cc3d 9bd5 403e
00000140: 743f 073e 89c2 7a3e 5e70 0a3e 7911 86be
00000150: 2c38 d6be 1770 f8bd 8038 7dbd 1706 423e
00000160: 235f 4d3c 8ea0 203d cbd0 613e bc1f 0cbd
00000170: 48c9 a7bd 87ad 083d 887f 28be d785 58bb
00000180: 31d3 7f3d 50db f8bd 7757 88bd 144b b63d
00000190: 6444 79bd 29bb d6be 6a4d f13d 9cbe 273d
000001a0: 29f0 acbd 962f c5bb 838b 523d 0f1f 97bd
000001b0: ab71 82be 8b35 5c3e b618 b73d 2dd3 8dbc
000001c0: b8ad 883e c983 05be 8aab 953d d641 993d
000001d0: a688 eb3d 7557 63be c84d 5f3e 8764 b53d
000001e0: 2593 74be 6da5 c3bc d91a a3bc 5043 7f3d
000001f0: f478 adbd 1ce7 b5bd c12b c5bd 7e06 e63e
00000200: 9c94 58be 2623 53be d9e1 87be 42eb 653e
00000210: c35f 6cbe a00d b03d 7912 2bbe f419 5dbd
00000220: 9494 e3bd afe2 933e e0dd fa3d f34c 29be
00000230: 72d9 aa3d 97f4 893d ec31 b1bd 19a7 f03c
00000240: 4a58 b3bd ba85 59be 2972 debd ee24 313e
00000250: 6270 bbbd 3a4e 02be bb5c 273e 8920 95be
00000260: 6470 ff3d 7c95 afbd c44b ffbd d6d9 d23d
00000270: e47e 9a3e 668d 12bc 56bf 603e 7868 993d
00000280: ad8b 9a3d 0d71 8a3e 2c89 983c 84c3 4e3e
00000290: 2689 80be d04a 0b3b 99fd b7be ee27 89be
000002a0: 3bb2 8d3e a837 323e 0be7 a1bd 1861 1d3d
000002b0: 956c 44be 1b2c d23e bb99 93be d5df 6a3e
000002c0: bebe 5d3b da54 32be c29f 693e 187a 80be
000002d0: f23f ac3d 4b93 9ebe ea3f 0b3e 4bba c53d
000002e0: 3793 073e ebcd 49be a937 dbbd d23a f2bc
000002f0: 9d3c 803e 91e4 8839 7348 3bb9 63bd a6be
00000300: cf60 55be f1b5 483d 1f42 263e 2a4c 7d3e
00000310: 319a c2bd da2c 9c3e 2bbc 913d fa51 503d
00000320: b990 72be 00fa 163e ce7e 56be 2530 893d
00000330: 0aec e13d 26a6 223d 598a 013e 9116 37be
00000340: 918f 4fbe 14b0 29be 4dc0 08bd 9aed f1bc
00000350: 82b6 c93b 5ef1 0ebe 8368 8a3e 618a 8bbd
00000360: 919b 823d 0609 d2bd 1950 fdbd e83b e63c
00000370: 469a 863d cbdd 143e b0f8 a23e 0ec2 893d
00000380: 371a 113e a19e d93d 6fb1 5abe 2592 0e3e
00000390: 1cd6 07be f6c7 73be 6306 61bd 54f4 013d
000003a0: 28f7 32be a959 19bd 2a9d 89bd 13fe 74be
000003b0: c4a7 98be 5249 1e3e bf1e c0be 526a 22be
000003c0: f878 20bd cb72 b7ba 5fe9 babd ed9e 2fbe
000003d0: c770 45be 4cdb 993e 160d 3ebe e8f8 bc3e
000003e0: ee5d fdbd 9c0f 853d 767d 44bd dce6 863d
000003f0: 6dd0 2bbd 1f47 c9be 53be 8abd 141e a0be

enc1.conv2.bn.weight f4 [32]
1.1543552 0.86473405 1.0765266 1.0694426 0.7770013 0.8583259 0.8792502 1.0601928
0.6805914 0.8112525 0.5592067 1.043507 0.8943391 1.0572847 1.0359403 0.8373632
0.63812387 0.7375147 0.5195829 0.58074117 0.84480166 0.61238134 0.7884279 1.0369635
1.0989652 0.8754442 0.8140779 0.60250187 1.188181 0.9533193 0.8351949 0.77901137
00000000: e9c1 933f 365f 5d3f a0cb 893f 7fe3 883f
00000010: 8fe9 463f 3fbb 5b3f 8b16 613f 66b4 873f
00000020: 3d3b 2e3f 3eae 4f3f 2c28 0f3f a391 853f
00000030: 68f3 643f 1b55 873f b199 843f 6f5d 563f
00000040: 165c 233f c3cd 3c3f 6303 053f 74ab 143f
00000050: ec44 583f 06c5 1c3f 69d6 493f 38bb 843f
00000060: e4aa 8c3f 1c1d 603f 6967 503f 903d 1a3f
00000070: 5116 983f bc0c 743f 55cf 553f 4a6d 473f

enc1.conv2.bn.bias f4 [32]
0.21984047 0.072406955 0.17538962 0.2529693 -0.15274233 -0.17064506 -0.057992738 0.13370997
-0.01144903 -0.14289238 -0.07098479 0.17381693 -0.26014704 0.109615825 0.107295975 0.11443283
-0.14967436 -0.41572142 -0.34972224 0.14133132 -0.05076801 0.01152819 -0.10704034 0.09453465
0.074994475 -0.09302015 -0.19841942 -0.2984437 -0.06296229 0.13790321 -0.3536949 0.15843084
00000000: dc1d 613e 194a 943d 5699 333e 3185 813e
00000010: 7c68 1cbe 94bd 2ebe cb89 6dbd 44eb 083e
00000020: b694 3bbc 6152 12be 7960 91bd 11fd 313e
00000030: fe31 85be 437e e03d febd db3d c25b ea3d
00000040: 3c44 19be 70d9 d4be cb0e b3be 28b9 103e
00000050: 1ef2 4fbd bce0 3c3c f737 dbbd 629b c13d
00000060: b496 993d 5981 bebd 762e 4bbe 9dcd 98be
00000070: 60f2 80bd 8036 0d3e 7f17 b5be b23b 223e

enc1.conv2.bn.running_mean f4 [32]
-0.6480092 -1.3129495 -0.32792446 -0.538203 -0.008716666 0.19376877 0.5293771 -0.74025977
-0.9104129 0.38677874 -0.009164915 -0.59831667 0.825228 -0.1373699 0.033150844 -0.71508235
-0.5132542 0.684095 -0.1678928 -0.42321724 -0.4839332 -0.025340585 -0.0054044845 -0.7304722
-0.55023825 0.2603888 0.50039643 -0.40493596 -0.010297339 -0.81970614 0.04072976 -0.9986111
00000000: eee3 25bf bb0e a8bf b7e5 a7be acc7 09bf
00000010: 59d0 0ebc 526b 463e 4285 073f aa81 3dbf
00000020: d210 69bf dd07 c63e 7128 16bc 482b 19bf
00000030: 2442 533f b2aa 0cbe 2ec9 073d a30f 37bf
00000040: a164 03bf da20 2f3f 17ec 2bbe eeaf d8be
00000050: 18c6 f7be 0f97 cfbc 1a18 b1bb 3a00 3bbf
00000060: 6adc 0cbf ae51 853e fb19 003f c453 cfbe
00000070: 2cb6 28bc 43d8 51bf 40d4 263d faa4 7fbf

enc1.conv2.bn.running_var f4 [32]
1.1579208 3.6355217 1.2370558 0.80217373 0.6937295 0.33352736 1.4873021 1.4990913
2.2679563 0.95793766 0.17922908 0.9550725 2.9335625 0.29640847 0.33876136 0.88371795
0.29958922 0.47980857 0.634755 0.15652524 0.86509925 0.31588063 0.73567563 1.6007463
1.8411905 0.7659215 0.92382544 0.5170423 0.45817107 2.2181616 0.73418903 3.4351008
00000000: c036 943f 63ac 6840 d857 9e3f 425b 4d3f
00000010: 4298 313f 19c4 aa3e ea5f be3f 39e2 bf3f
00000020: 3226 1140 673b 753f d487 373e a27f 743f
00000030: 7dbf 3b40 dac2 973e 2172 ad3e 573b 623f
00000040: c263 993e 78a9 f53e 4e7f 223f 2748 203e
00000050: 2577 5d3f 1bbb a13e 3d55 3c3f 41e5 cc3f
00000060: 21ac eb3f 6e13 443f d37f 6c3f e25c 043f
00000070: 6695 ea3e 5cf6 0d40 d0f3 3b3f b1d8 5b40

enc2.conv1.depthwise.weight f4 [32, 1, 3, 3]
0.17618561 -0.19332598 0.17612284 0.34067154 0.42722335 -0.1559672 -0.20543838 0.20297801
-0.19397332 -0.004029381 -0.005152592 -0.36126652 -0.21143244 0.0050031347 -0.3426451 -0.32922843
-0.12921184 0.1648638 -0.051066373 -0.02992246 0.088662624 0.09332853 0.3167867 0.22505282
0.25828937 0.30636144 -0.18697044 0.20294663 0.053371742 -0.09406432 0.27435073 0.20625255
0.50042003 0.34119684 0.19080287 -0.050596073 0.025721489 -0.13623057 0.01658782 -0.16492607
-0.15418886 0.021646231 -0.03725534 0.030671507 -0.073623225 0.07142448 0.21713938 0.09415875
-0.11830251 -0.35690248 -0.3168363 0.1258445 0.32887858 0.35273954 0.28938317 0.062318627
0.15679215 -0.047364887 0.04656378 -0.46078748 0.18179965 0.087063394 -0.33907485 0.1607971
-0.08758063 0.13868736 0.28361222 -0.5057749 0.26387516 -0.21647997 -0.38307512 0.40538684
-0.29378477 -0.25477523 0.034878932 0.031300705 0.08239227 0.4947297 -0.10395543 -0.23564202
0.30048162 -0.09024567 -0.26137748 0.28582615 -0.044426814 -0.10012529 0.25237653 -0.08678245
-0.26696026 -0.15589584 0.11516253 -0.30004966 0.06010806 0.088736534 -0.25675392 0.007938759
0.33694646 -0.12549515 0.1344493 -0.21784234 -0.14971556 0.08377104 -0.3654533 -0.10075281
-0.33737108 -0.07100453 -0.36234802 -0.2464846 0.439556 0.49778736 0.1600535 0.04878081
0.0925076 0.22600512 0.56993246 0.34390146 0.5260273 -0.27765387 -0.03772206 -0.17652042
0.12399338 0.2979529 -0.21776114 0.2187032 0.1694481 0.059653316 0.31025547 -0.27582315
0.19547091 0.24745913 -0.27022094 -0.09576477 0.5196968 0.15172614 0.023728037 -0.23556477
-0.13295227 0.026765777 -0.20739459 -0.18596618 0.29508215 -0.16443232 0.2604761 0.30291152
0.09243448 -0.24023023 -0.024831051 0.011771875 -0.16163011 0.10415737 -0.13521372 -0.19206665
0.23617299 0.29672822 -0.21885075 0.2625436 0.23975503 0.10928861 0.18073767 0.3499922
0.16615176 -0.12779096 -0.33214033 0.1611408 0.06433622 -0.06175502 -0.19384336 0.20497563
0.20165817 -0.20674282 -0.16208382 -0.14397113 0.23892558 -0.13116096 0.27584955 0.124982424
-0.51939976 0.20456082 -0.10112234 -0.037085827 -0.49686232 -0.22476007 -0.24250011 0.05854245
0.087304555 -0.36392587 -0.46279228 -0.22942595 -0.3389389 -0.29257312 0.038423896 0.21312317
-0.40481332 0.2426193 0.053569686 -0.33616868 -0.38482636 -0.07297873 0.10496192 0.26137388
-0.10579917 0.07943312 0.020301817 0.16024686 -0.09904491 -0.02471834 -0.3829903 0.33665952
0.054313757 -0.092133924 0.35345224 0.1881417 0.17870054 -0.11327431 0.3342941 0.016024739
-0.44864362 -0.15718344 -0.24527206 -0.06027391 -0.26642987 0.053665694 -0.46118757 -0.50453985
-0.21030724 -0.3762145 -0.14313108 -0.0279203 0.22000325 -0.3237764 0.11503991 0.16955179
0.12939033 0.23433286 0.075745426 0.39071462 0.023858305 0.41245458 -0.2083617 0.3695028
0.30960768 -0.23014799 -0.15871279 0.24353473 0.19490246 -0.025375932 0.26972896 -0.114686266
0.13222337 0.091037095 -0.28937614 -0.5217119 0.29824382 0.028928077 -0.08100765 0.2519841
00000000: 006a 343e 3ff7 45be 8c59 343e 806c ae3e
00000010: 05bd da3e deb5 1fbe 705e 52be 78d9 4f3e
00000020: f1a0 46be e608 84bb 13d7 a8bb edf7 b8be
00000030: bf81 58be 56f1 a33b 2e6f afbe a190 a8be
00000040: 1c50 04be 0ed2 283e f92a 51bd f21f f5bc
00000050: c094 b53d 0723 bf3d de31 a23e 3f74 663e
00000060: 813e 843e 68db 9c3e 2e75 3fbe 3ed1 4f3e
00000070: 549c 5a3d cba4 c0bd b377 8c3e de33 533e
00000080: 871b 003f 5ab1 ae3e d461 433e d43d 4fbd
00000090: dfb5 d23c 0780 0bbe 2ee3 873c 61e2 28be
000000a0: afe3 1dbe 7053 b13c 0e99 18bd d042 fb3c
000000b0: c6c7 96bd ff46 923d c959 5e3e 4dd6 c03d
000000c0: 9648 f2bd ecbb b6be 5e38 a2be 61dd 003e
000000d0: c662 a83e 479a b43e 082a 943e d141 7f3d
000000e0: 1f8e 203e af01 42bd aab9 3e3d 56ec ebbe
000000f0: b029 3a3e 4b4e b23d 389b adbe ffa7 243e
00000100: 795d b3bd 0f04 0e3e 9f35 913e 777a 01bf
00000110: a51a 873e edac 5dbe 6c22 c4be dd8e cf3e
00000120: f56a 96be e671 82be 36dd 0e3d 2b35 003d
00000130: 47bd a83d 364d fd3e 96e6 d4bd 244c 71be
00000140: bad8 993e b9d2 b8bd 45d3 85be ce57 923e
00000150: e4f8 35bd 7d0e cdbd 7f37 813e ffba b1bd
00000160: 04af 88be 29a3 1fbe 55da eb3d 1ca0 99be
00000170: de33 763d 80bb b53d 4075 83be 9211 023c
00000180: 3f84 ac3e cd81 00be 14ad 093e 1012 5fbe
00000190: 094f 19be 2790 ab3d b21c bbbe 7d57 cebd
000001a0: e7bb acbe d36a 91bd ae85 b9be 7566 7cbe
000001b0: 7c0d e13e fcdd fe3e 11e5 233e 63ce 473d
000001c0: a074 bd3d e36d 673e 18e7 113f da13 b03e
000001d0: baa9 063f a628 8ebe 7282 1abd c5c1 34be
000001e0: 3ef0 fd3d 488d 983e c7fc 5ebe bbf3 5f3e
000001f0: cd83 2d3e 0957 743d ced9 9e3e b138 8dbe
00000200: 8729 483e ed65 7d3e 665a 8abe 5220 c4bd
00000210: d90a 053f 195e 1b3e 4d61 c23c e437 71be
00000220: a424 08be e743 db3c 3f5f 54be eb6d 3ebe
00000230: 0215 973e f260 28be 205d 853e 3817 9b3e
00000240: 4a4e bd3d eafe 75be 7d6a cbbc d3de 403c
00000250: 5d82 25be 7650 d53d 7775 0abe 1fad 44be
00000260: 55d7 713e c3ec 973e 691a 60be 1d6c 863e
00000270: 5882 753e b5d2 df3d 4c13 393e 2d32 b33e
00000280: b023 2a3e a2db 02be 4c0e aabe 1802 253e
00000290: b5c2 833d d5f2 7cbd e07e 46be 22e5 513e
000002a0: 7b7f 4e3e 64b4 53be 4df9 25be 2b6d 13be
000002b0: e8a8 743e 0f4f 06be 273c 8d3e c9f6 ff3d
000002c0: 62f7 04bf 6478 513e 3b19 cfbd 4fe7 17bd
000002d0: bd64 febe 8127 66be f351 78be 35ca 6f3d
000002e0: bbcc b23d 7e54 babe 1cf3 ecbe a3ee 6abe
000002f0: 6689 adbe 25cc 95be 6062 1d3d f63c 5a3e
00000300: b143 cfbe 3271 783e e36b 5b3d 4d1e acbe
00000310: f607 c5be df75 95bd 46f6 d63d ccd2 853e
00000320: 3cad d8bd d5ad a23d ff4f a63c c117 243e
00000330: 0fd8 cabd 1e7e cabc 4e17 c4be a35e ac3e
00000340: 1a78 5e3d b6b0 bcbd b1f7 b43e 38a8 403e
00000350: 46fd 363e 5dfc e7bd 9928 ab3e 5046 833c
00000360: 9eb4 e5be b2f4 20be 9928 7bbe c7e1 76bd
00000370: 7f69 88be 8fd0 5b3d c720 ecbe 8629 01bf
00000380: c85a 57be 309f c0be f490 12be 1db9 e4bc
00000390: 8848 613e 05c6 a5be 0b9a eb3d fc9e 2d3e
000003a0: e67e 043e f4f4 6f3e 6b20 9b3d bf0b c83e
000003b0: 7e72 c33c 3f2d d33e c55c 55be 792f bd3e
000003c0: e684 9e3e eaab 6bbe 9b85 22be 2b61 793e
000003d0: 8394 473e 30e1 cfbc ea19 8a3e a2e0 eabd
000003e0: 9065 073e a871 ba3d 1c29 94be e98e 05bf
000003f0: 6ab3 983e 93fa ec3c 57e7 a5bd 0f04 813e
